models/dqn_BTCUSDT.pth (torch, 304880 bytes, 6 tensors)

net.0.weight f4 [62, 1152]
00000000: 32c2 fdbc 1eb1 9bbd bc29 73bd dadd 86bd
00000010: 1cc5 00bd fdf9 44bd 467e ed3d 7f83 0bbc
00000020: c78a fd3c cbd8 aebc bf12 83bc 759f c43d
00000030: f907 7d3d d8c0 863d 7cdf 49bc cbf1 69bc
00000040: 1244 a03d f2a5 d43d 45eb 0abd a8f5 79bb
00000050: a9aa 10bd 3c97 e8bc e121 81bd c437 6abd
00000060: 0648 d93d cfa0 efbc 6555 0a3d a007 d1bc
00000070: 8875 14bb ec24 703d 9b02 c13d 3cf7 a83c
00000080: 6a5d 59ba 3e5e 523c 3c4f df3d e202 a73d
00000090: c6ac cbbc 2779 00bd dd8e 423c 0276 cabc
000000a0: c43c 1638 0fcf e9bc 084d 8c3d 74cc a83c
000000b0: cfc4 a73c a718 55bc cca5 10bc e5e4 653d
000000c0: c546 b63d 90d3 713d 686c 21bd 22e7 03bc
000000d0: 030f 583d 466b b03d 29c7 8abb dd9d 9dba
000000e0: 7e64 a03b 68de 13bc 1cc3 cf3a a0f2 613d
000000f0: 21b8 ca3d c00f 9fb7 cabd 4e3c 5321 30bc
00000100: 5ad0 07bd e83d a53d d275 d33d 0d1f 603d
00000110: 6b70 a5bc f3d2 9abb b208 923d 0248 e43d
00000120: 32d0 a03b 4ce0 73bc 7c64 093d 86f4 edbc
00000130: d964 b4bc 54b4 b83c 32a5 9c3d ff15 c13a
00000140: dd7f 95bb ae69 54bc 22c3 c73b c931 ae3d
00000150: fb6c 7b3d 7dd7 af3d e2f1 b9bc f7ba 013d
00000160: 2690 1d3d d844 673d 63e6 0fbb 59c6 793c
00000170: 5b51 32bb c68a 6ebb 4fc8 feba 5a3e 9dbd
00000180: 756e 3f3d b5d9 b8bc 830c ee3c 0254 f8bb
00000190: ab66 5cbc a6cd 9f3d fd1b 853d cd8f cd3d
000001a0: a887 503c 593e afbc 628b 6e3d e2ef 9f3d
000001b0: 3a0b d13c c60a e43c abb7 cdbb 288c 89bc
000001c0: b2e8 08bd cfc0 a43b 0ec8 243c 38e0 bf3c
000001d0: 2904 293d 0fa2 5abc ebc6 7ebc f851 d73d
000001e0: 9013 ab3d 100e d13d 454d d4bb 027b 73bc
000001f0: 3cc1 053d 6277 b03d 9e1d c5bc 1efa babc
00000200: b866 bfbc 0547 31bc f397 a3bc 9cb5 aabd
00000210: 38e2 3abc dec0 e03c 4e59 c1ba 50bd f43b
00000220: 6fc4 09bc c278 a43d 848b 473d 9e74 f03d
00000230: 1d13 fabb 6e12 2a3c 8f9b aa3c dc97 db3d
00000240: 9f2c 593c 13ce 0f3c c5a2 613b 2159 a7bb
00000250: eb7e 08bc cf6b 593d 949f a1bc 158c 9dbc
00000260: 1e85 0b3d 12e1 95bb b3eb 453c 8dc1 8c3d
00000270: 7448 653d 4403 f33d b7d8 623a 6347 b0bc
00000280: 4f24 ed3c 6828 ae3d 4bdc cbbc de71 6a3c
00000290: 9fb1 4b3c 75f3 bcbc a474 d73c 201c 1b3e
000002a0: c39c eebc 5d6e 703c 648b a9ba 9ec9 f4bc
000002b0: 7c0e d6bc a818 533d 3f12 563d 1015 f83d
000002c0: 390d 9bbb ecac b13b 1a5f 5fbc 907b a83d
000002d0: b1b8 e1bb 191d 3bbd f37e 30bd b6f3 623c
000002e0: 2325 bf3b de07 103d d2ab 6dbc 2c57 993c
000002f0: d5fc 783c 7bef 82bc 9c1c 663c 8c9f 6d3d
00000300: 7d9a ae3d b391 003e c58e 86bc 176b bbbb
00000310: cd5c a83c a2bc b23d 95ae f7bc 971e c33b
00000320: eb0a c8bc 0440 19bc 2ee6 c9bb f00f 593b
00000330: 3c75 803b b654 edbc b524 71bb 9012 c1bb
00000340: 9ca0 0bbd af4b 963d 9b7f 6d3d cbcb dc3d
00000350: 3d6d e7bc 7089 b8bb 47c3 01bd d8d5 c73d
00000360: c8cb 043d 4eb5 063d 1c50 123c 485e babc
00000370: 86b0 28bd e57a f03d 5e31 4ebc 0dae ef3c
00000380: 12ea ad3c fe8d 91bc 63e5 343b b94d c23d
00000390: 282d bb3d ba3c 063e a042 8ebc 61a9 97b9
000003a0: 14c4 253c 0e88 ae3d 5424 07bc 19f9 95bc
000003b0: 6715 7ebc c942 f53c b22a 0d3c 8e0e a53d
000003c0: 50a9 c4bc 6eb4 d9bc 6a13 d43a 6122 cbbc
000003d0: fdab cabc e303 ca3d 31a8 8b3d 4f51 973d
000003e0: a779 353a 2b43 74bc cb38 11bd 5023 7c3d
000003f0: e1ce 1e3d 2ffb 2f3d b763 0e3c e155 8f3c
-0.030976389 -0.07602142 -0.059365973 -0.065852836 -0.03143798 -0.04808997 0.1159635 -0.008515238
0.030949963 -0.02134361 -0.01600015 0.096007265 0.06177518 0.06579751 -0.012321349 -0.014278839
0.078254834 0.10383214 -0.033915777 -0.0038140807 -0.035319004 -0.028392427 -0.0630529 -0.05718209
0.106094405 -0.029251484 0.033772845 -0.025516331 -0.0022653062 0.05862896 0.09424325 0.020625703
-0.0008291813 0.012839852 0.10903785 0.08154847 -0.024862658 -0.03136554 0.011874882 -0.024714474
3.581938e-05 -0.028541116 0.0685063 0.020605303 0.020479588 -0.013006366 -0.008828592 0.056126494
0.08900217 0.059039652 -0.039410025 -0.008050712 0.05274869 0.08614211 -0.0042351675 -0.0012025196
0.004894792 -0.009025194 0.0015850994 0.055163026 0.09898401 -1.8961611e-05 0.012618491 -0.010750133
-0.033157684 0.08068448 0.10325207 0.054717112 -0.020195207 -0.004724854 0.07130565 0.11146547
0.0049076313 -0.0148850195 0.033543095 -0.029047262 -0.022020744 0.022546925 0.07648696 0.0014731287
-0.0045623616 -0.012964649 0.0060962597 0.085055895 0.06138323 0.08586023 -0.022698347 0.031672444
0.03846755 0.05646214 -0.002195739 0.015245044 -0.0027209136 -0.0036398633 -0.0019438359 -0.07677908
0.0467362 -0.022564748 0.0290587 -0.007578374 -0.013452212 0.07802896 0.06499479 0.100371934
0.0127276555 -0.021392034 0.058238395 0.07809426 0.025518049 0.027837168 -0.0062779984 -0.016790465
-0.03342504 0.0050278674 0.010057462 0.023422346 0.041263733 -0.013344302 -0.015550355 0.10513681
0.083533406 0.1020776 -0.006478938 -0.01486087 0.032654986 0.086165205 -0.024061974 -0.022824343
-0.02336441 -0.010820155 -0.019969916 -0.083354205 -0.011406474 0.027435716 -0.0014751346 0.007468857
-0.00840865 0.08030845 0.048717037 0.11740993 -0.007631673 0.010380371 0.02082613 0.10722324
0.013255267 0.008777159 0.0034429294 -0.0051070605 -0.008331041 0.05308133 -0.019729413 -0.019231835
0.034062497 -0.0045739496 0.012080121 0.068728544 0.0559773 0.11865857 0.0008653509 -0.021518415
0.028947977 0.08503801 -0.024885317 0.014309375 0.012432485 -0.023065308 0.026300736 0.15147448
-0.029127484 0.01467475 -0.0012935218 -0.029881295 -0.026129954 0.051537186 0.052263495 0.12113392
-0.004731801 0.005422225 -0.013633514 0.08226693 -0.006888472 -0.045682047 -0.04308982 0.0138520505
0.0058332845 0.035163753 -0.014506297 0.018718325 0.015196999 -0.015983334 0.014044907 0.058013484
0.0852556 0.1255558 -0.0164255 -0.005719553 0.020552063 0.08727385 -0.030234614 0.0059545743
-0.024419269 -0.009353641 -0.0061614728 0.0033121072 0.0039202254 -0.028971057 -0.003679556 -0.0058921054
-0.034088716 0.07338654 0.057983022 0.10781058 -0.028250331 -0.005631618 -0.03168037 0.09757584
0.032420903 0.03288775 0.008930232 -0.022750035 -0.04118397 0.1174219 -0.012585012 0.029257799
0.021229777 -0.017767902 0.0027602545 0.09487481 0.09139472 0.13109103 -0.017365754 -0.00028927161
0.010117549 0.08522044 -0.008248407 -0.018307256 -0.015508032 0.029939072 0.008616136 0.08059417
-0.024006516 -0.026575293 0.0016180102 -0.024796667 -0.024740214 0.098640226 0.06819189 0.07388555
0.00069227297 -0.014908592 -0.035454553 0.061557114 0.038771514 0.042964157 0.008690766 0.017497005

net.0.bias f4 [62]
00000000: 683d 033e 3c05 873c c72f e9bb a48f d03b
00000010: 9321 f13d f864 0a3e 63f9 043c 93ea 233c
00000020: 40a6 f53b cc13 22bc 292b a53c 83b8 7cbc
00000030: 0340 e6bc edd4 033e 3585 db3c 41a1 e1bc
00000040: fa7e 143c 3730 083c a748 fdba 5c59 95bb
00000050: 4269 37bc 3f63 063e 19e3 a4bc 34dd 91bb
00000060: b20f e93d 23d4 12bd 0cd6 66bc 9f7f b13c
00000070: 6ac0 1b3e 638c 93bc d290 b23d 1119 aebc
00000080: 0c41 bcbb e99d 0c3e 1e2b 0f3c 3b7c cdbc
00000090: a468 13bd 32d8 b63a 35f4 663c 06c8 9fbc
000000a0: 058e 783c 68fe eebc ed4e de3d eb18 9a3b
000000b0: dcef fb3d 012a 8ebb e132 fbbc 58da c4bc
000000c0: 5a71 80bc 118e cb3d 010f 8ebb 66c0 56bc
000000d0: b7eb fc3d 9c87 e03b 6789 a1bc c3f6 6bbc
000000e0: 14bd bcbc cfaa e93c 509e 04bd 14fd 903c
000000f0: e3e1 a1bc 7eee 313d
0.12816393 0.016481988 -0.007116291 0.0063647795 0.11773982 0.13515079 0.008116099 0.010004657
0.007496625 -0.009892415 0.020162182 -0.01542485 -0.028106695 0.12874193 0.026796916 -0.027542712
0.009063477 0.008312277 -0.001932402 -0.0045577716 -0.011194529 0.13123797 -0.02012782 -0.0044514183
0.11379947 -0.03584684 -0.014089119 0.0216673 0.15210119 -0.018011278 0.087190285 -0.021252187
-0.005745059 0.13732113 0.008738307 -0.025083652 -0.035988465 0.0013949929 0.014096309 -0.019504558
0.015170579 -0.029174045 0.10854898 0.0047026775 0.12301609 -0.0043385033 -0.03066391 -0.024029896
-0.01567905 0.099392064 -0.0043352847 -0.013107395 0.123496465 0.0068521034 -0.019718839 -0.014402094
-0.023039378 0.02852383 -0.03237754 0.017698802 -0.019761031 0.043440334

net.2.weight f4 [62, 62]
00000000: fe0b 12be 80ef ca3a 8001 81bc 58a3 95bd
00000010: 9985 76bd 5b5c d2bd ff01 c7bd 301c c4bb
00000020: eea9 6bbd 2073 a33b d38d aabd bc0e 5dbd
00000030: 8cab 683d dd6f 20be 68ff 13bd ac88 7f3d
00000040: 58db fe3d 7532 ecbd ac57 d43d b0eb 653d
00000050: 8e67 e83d 00bd 963d f497 87bc 402d f33b
00000060: 5038 68bd cb3d 46bc 8846 dc3d 8a34 e43d
00000070: d15b 533d 6af3 923d caed ab3d 01b7 cbbd
00000080: cb9d b5bd 11d8 a7bd 6ecb 71bd 008a f53d
00000090: f21b 0a3d c5b7 5ebc 281c 8ebd 5cab 743d
000000a0: 30fd a3bc 1f56 efbd a535 643b 3cbc 5b3d
000000b0: a8cc ef3d e886 c4bc 004b cebb 44ec 783d
000000c0: 62dc f03d bf4f 5c3d 50b5 79bc 16bb 1fbd
000000d0: 0163 813c 4400 6d3d 6f02 d7bd 9070 6b3d
000000e0: d0a8 bbbd 100f ddbd fe4e 1fbd d4b6 6c3d
000000f0: b843 bb3c c626 f83d 7882 65bd b002 82bb
00000100: e26a 9cbd 68e5 da3c 13d8 623d 40c4 c33d
00000110: 9485 bdbd 8ae3 853d a05d d2bd f059 453c
00000120: 28e2 9a3c 0e4e d03d 3275 bdbd 4596 0fbb
00000130: b093 fe3d d8d4 f1bc bfab e5bd f618 62bd
00000140: 6699 a83d d887 723d f274 3bbd 8221 f1bd
00000150: 120c 2ebd 3899 8c3d fbd4 8d3d e32f 04be
00000160: 4067 d33d 26b3 e43d c063 2b3d dc59 82bc
00000170: bba0 a7bd cc27 413d ec0a 033d 8891 aabd
00000180: 4ab9 ee3d 62ce af3d db1f bbbd dc6b dabd
00000190: 905b 0d3c f5ca d5bd d815 d23d be3f 0abd
000001a0: 747e 86bd aa93 c63d 15b9 abbd 7cc4 733d
000001b0: e83c 4f3d 0495 173d a432 283d 801b 8dbd
000001c0: a4dd a3bd c041 b6bc b277 1a3d 3cad 08bd
000001d0: e88b f33d 083f 71bd 1a95 893d 72d0 b23d
000001e0: 44b7 0abe 78fc ee3d 502a acbc 175f eb3c
000001f0: dbda 8bbe dd62 923d bc93 e03d 409e 853c
00000200: 1727 90be fe5d 2c3e 6934 0c3d c667 9c3d
00000210: af42 ed3b 038c b9ba b966 f9bd d009 83bd
00000220: 3d75 c33d 3d5e d6bc 4a1b a6bd 73b3 febd
00000230: a8ae e43d 02cc ac3d b5a1 49bc 48ce 4c3c
00000240: 881c ad3d 9259 3f3e 4f12 4ebd a064 00bd
00000250: 0238 463e 484e d1bd 89ce 863d 10ef f33d
00000260: d37c 603e 1a63 a33d 9911 503e 269f 96bd
00000270: aafd 7abd 66c4 0d3e b4aa 733d 3c35 45bd
00000280: 31c6 ba3c 4d26 fc3d 829f ab3d af3c 3b3a
00000290: 03bd edbd 8cef e3bd 9c37 86be ed4b 91bd
000002a0: b4d8 003e fc9c 36bd 614c 6bbc a4b4 b0bd
000002b0: ca67 7cbd d485 10be 57e5 a03d 9a18 c6bd
000002c0: 9449 313e 09cc f2bd fe9d 8bbd e23a 98bd
000002d0: 52a3 9abd 4854 013e c876 183e 2a79 71bd
000002e0: c0f2 a33d c040 113d 0f5d e63e a394 76bd
000002f0: 4254 4bbd 5c33 1f3d e962 ad3e 0217 5a3d
00000300: f45f 693d 00aa 9f3c 2da5 be3d 8ff0 f83c
00000310: 9eaf aabd e023 883c ee78 82bc f507 d13d
00000320: f87c 883c 7d06 90bd 14dd 61bd d513 843d
00000330: 7da6 f23d 86bc 963d 54cd 8dbd f978 9cbd
00000340: 7283 acbd 5d4c a1bd d3c1 64bd e886 17bd
00000350: b194 25bd e00f 943c 2c3b c1bd 2147 bdbd
00000360: 83f0 f53d e6be 27bd 0048 493b 1053 313e
00000370: 46a5 a8bd aa9b b83b 8d98 283d 7286 e33d
00000380: ea8d 8abc 11cd 7d3d 67f0 35bd c8c4 9a3c
00000390: 5aac e63e 7f99 a3bd 4b53 9a3d 6ab6 94bc
000003a0: dfc2 f73d 28b2 ec3d bc07 9bbd 58a3 9b3e
000003b0: fb0b 9f3c d751 513d b5b2 a53d 6000 f5bc
000003c0: 15c6 e0bd e0da a23d f8e0 76bd 6577 20bd
000003d0: 319d 94bd 7c8d 093d 112b d8bc 8444 043d
000003e0: d607 cf3d 782b c9bd 8c4a 063d a0da f33b
000003f0: c21f 55bd 5504 5fbd 714e b4bd 94b5 593d
-0.14262387 0.0015482754 -0.015747786 -0.07306546 -0.060186002 -0.10271522 -0.097171776 -0.0059848055
-0.057535104 0.004988089 -0.08327832 -0.05396913 0.056804225 -0.15667672 -0.036132246 0.0623862
0.1244418 -0.115330614 0.103682846 0.056132972 0.113478765 0.07360268 -0.01655195 0.0074211657
-0.05669433 -0.0120996935 0.1075564 0.111428335 0.051601235 0.07175334 0.08394964 -0.099470146
-0.08867987 -0.08195508 -0.059031896 0.11989212 0.033718057 -0.013593619 -0.06938964 0.059733734
-0.02001819 -0.11686348 0.0034822014 0.05364631 0.11708957 -0.02399011 -0.006295562 0.060772195
0.11760785 0.05378699 -0.015240982 -0.03899678 0.015794279 0.05786158 -0.10498511 0.057480395
-0.09163058 -0.107938886 -0.038893692 0.057791546 0.02285944 0.121167704 -0.056032628 -0.0039676055
-0.07637574 0.026720718 0.055381846 0.09558916 -0.09253994 0.0653754 -0.10271764 0.012045369
0.018906668 0.10171138 -0.09250869 -0.0021909636 0.12430513 -0.029520437 -0.112143986 -0.055199586
0.082323834 0.059211582 -0.045765825 -0.11773969 -0.04249198 0.06865162 0.069253884 -0.12908892
0.10322428 0.11166982 0.041843176 -0.015911989 -0.08184954 0.047157094 0.031992838 -0.08328539
0.11656435 0.08584286 -0.09136935 -0.10665104 0.008627787 -0.104391016 0.102580726 -0.033752196
-0.06567088 0.096961334 -0.08384911 0.059513554 0.050595194 0.037007347 0.04106392 -0.06890011
-0.08001259 -0.022248149 0.037711807 -0.033368334 0.118919194 -0.058898002 0.06717892 0.08731164
-0.13546473 0.11669248 -0.02101627 0.028731866 -0.2731541 0.07147763 0.10965678 0.016310811
-0.28154823 0.1683273 0.03422967 0.07636981 0.0072406153 -0.0014156107 -0.12177796 -0.06398356
0.09543846 -0.026167983 -0.08110674 -0.12436571 0.111661255 0.08437349 -0.01230662 0.012500353
0.084527075 0.18686512 -0.05031043 -0.031345963 0.19357303 -0.10220009 0.06582362 0.11910832
0.21922617 0.079778865 0.20319213 -0.07354574 -0.06127707 0.13844451 0.059488967 -0.04814647
0.022799583 0.12311993 0.08380033 0.00071425264 -0.11608317 -0.11129674 -0.26214302 -0.0709456
0.12582666 -0.044583306 -0.014361472 -0.086282045 -0.06162242 -0.14113551 0.07856243 -0.09672661
0.17313224 -0.11855323 -0.06817244 -0.07433106 -0.07550682 0.12629807 0.14889061 -0.05895344
0.08005285 0.03546214 0.44992873 -0.060200345 -0.0496409 0.03886734 0.33864525 0.0532446
0.056976274 0.019490242 0.093088485 0.030388145 -0.083342776 0.016618669 -0.015926804 0.10206596
0.016661152 -0.070324875 -0.055142477 0.06449095 0.11848161 0.07360177 -0.06923929 -0.07640261
-0.08423509 -0.07875893 -0.055848908 -0.03699389 -0.040425006 0.018073976 -0.09435114 -0.092420824
0.120087646 -0.04095354 0.0030713081 0.17316842 -0.082346484 0.005633791 0.04116111 0.11109628
-0.016913373 0.061963145 -0.04441872 0.01889266 0.4505337 -0.079882614 0.07535418 -0.018153388
0.120977156 0.11557418 -0.075698346 0.3039806 0.019414892 0.05110344 0.08090726 -0.029907405
-0.10975281 0.07951903 -0.06027314 -0.039176363 -0.072565444 0.033582196 -0.026387723 0.032291904
0.101089165 -0.09822744 0.032785937 0.0074418336 -0.05203224 -0.05444749 -0.08804024 0.053151682

net.2.bias f4 [62]
00000000: 91b2 75bd b9e5 8abd fec9 ba3d ca12 de3d
00000010: 1e62 99bd e948 a5bd 5166 753e c1be ee3c
00000020: d8de e63c a8bb 97bc a090 883d 3baf 28be
00000030: eb3a 5b3e 0153 18be 56d5 693d a946 acbb
00000040: 23ee 1cbd 71d8 6dbc cb94 693d 3804 b2bd
00000050: 2cce dabd 2a6c 913d 76aa f93d 5b3f 263e
00000060: adb5 05bd f53b ad3a 8554 16be f9f8 5dbd
00000070: 2463 793e 4fcb c3bd f3e5 9f3d ff24 ebbd
00000080: 93f1 8abd 7312 943e 4e04 403e 992e 713e
00000090: 28d3 133e a65a a63d 0a49 e9bd a088 fe3c
000000a0: 064a 1c3f d5b7 1cbd bf73 bf3c a3cf 7abd
000000b0: f8dc 913b 00fb 4d3d fd23 553e b7ba 803d
000000c0: 68e1 133c 13e1 c63d 8404 bd3d 8918 f23d
000000d0: 30a6 703e 539e 4b3d b127 743e 630b 3f3e
000000e0: 5a7c f43c 1978 5e3c 929a 693d e23b 083e
000000f0: baf2 223d 4f51 363d
-0.059984747 -0.06782097 0.09120558 0.108434275 -0.074894175 -0.08070547 0.23964812 0.029143693
0.028182432 -0.018522099 0.0666821 -0.16473095 0.21409194 -0.14875413 0.05708822 -0.005257447
-0.038313042 -0.014516936 0.057026666 -0.08692211 -0.106838554 0.07100709 0.12190716 0.16235106
-0.032643963 0.0013216721 -0.14680679 -0.054192517 0.24354225 -0.095602624 0.07807531 -0.11481666
-0.06784358 0.28920326 0.18751642 0.23552932 0.14436018 0.081227586 -0.11390884 0.031071007
0.6105045 -0.038261253 0.023370622 -0.061233174 0.0044513904 0.0502882 0.2081451 0.06285613
0.009025909 0.09710898 0.09229377 0.11821086 0.23500896 0.049711537 0.23843266 0.18656687
0.029844452 0.013578438 0.057032175 0.13304093 0.039782263 0.044511136

net.4.weight f4 [3, 62]
00000000: 6a3f 5c3d 4d10 5fbd 8c90 ea3b a5b4 233e
00000010: 865b ea3d 1a0c f13c cd92 813c 1e8c 10be
00000020: fbfb cabd e8dc 4bbc acd0 3fbc 984c f9bd
00000030: 62a7 c03e 2763 1d3e 711e a13d a061 113d
00000040: 1312 c33d 2ac6 ccbd 5985 20be fa2c 563e
00000050: 1487 793d 3eec 993d b0ca 7b3d b1de fd3d
00000060: 3f2e 4f3e 274c 813d 2305 b9bd 0657 c83d
00000070: 899b 403d 7c2e d8bd ecc0 debc 1627 26bd
00000080: 219c f93d 21b9 f73e 91f6 c4bd d0ff 8a3c
00000090: 7b95 e73d 012d 433e 34e5 4a3d ce77 863d
000000a0: 6265 3a3f bca6 5abe 96f3 57bd aeec 29bd
000000b0: 0b77 e03d 20d9 db3b 394e 0b3e 7040 25bb
000000c0: aaa7 20be ab0f 3fbd 2187 813d 1d63 a23d
000000d0: 385a cbbd 5e16 d53d cb1c 1c3c 4f82 0fbd
000000e0: 40f4 e33c 1dda ccbb 0d85 afbe cc57 803e
000000f0: e085 b03d 22bb 0a3e 99d8 263e 4e59 f4bc
00000100: 7eea 80be c71e ea3e 8bb1 92bd 093e b63e
00000110: 7c92 81be b487 46be 3af2 b33d 8adb 863e
00000120: b0ce 1abe 1ec5 be3e 7264 b23e ad2c e93d
00000130: cb2d aa3d 8220 7f3c 1ee6 813d 0a8f a8bd
00000140: e25a bf3e 216c a73e d897 91bd dcb7 31be
00000150: 6df1 e13e f108 03be 3ba1 b03e 0c54 753d
00000160: 946b 8c3d f57e 4b3d 9725 febd c478 843e
00000170: fddd 163e 7c9b 733d 0c19 2c3e f9c1 5c3e
00000180: 3688 89be 2c8d 08be ac3a ad3e 0aa2 013f
00000190: 90ce fdbb 8de2 d43e 7c1d bd3d 23d8 71be
000001a0: c2fd c6bb 0a09 d03d 3c7d 03be ae2b a4bd
000001b0: 6f85 18be a865 a1bc 3cbd 8abe ca35 c3bc
000001c0: 1769 93bd 225d 57bd 2fa5 13be 97a4 cabd
000001d0: 3280 61be c59a 93be 3a50 02bd 6434 9bbd
000001e0: 6fec 5ebe fc78 ea3e 96df 5ebe 90d3 d83b
000001f0: bdfe 42be 9074 023e 0689 70bb 85a4 1b3d
00000200: a891 e43d 61ac afbc c0a2 c1bc 34d6 f03d
00000210: fc1e 693d bb94 893d 1aad dbbd 6552 27be
00000220: a1e9 293e cefb 2bbd 28a6 88bd c270 843d
00000230: 6f6b 233d 52c3 18bc 8050 6fbd ab6b 69bd
00000240: c888 5c3d 7e92 c73d 6446 31bc cf80 663d
00000250: 667e 3ebc 8126 06be 541c 853d d4a9 f6bd
00000260: fb30 1b3e ad97 e0bc 5288 803e 805c ab3b
00000270: 69ba 3b3a 374f 943e 513c 013e 1052 0f3e
00000280: 1c43 1d3e 2587 f03d c2d6 92bd 4ed2 a5bd
00000290: 095d 2e3f 0d95 d7bc 9730 50ba af14 293e
000002a0: 6693 b9bd 7830 9c3c 8501 e83d 3e29 cdbd
000002b0: 9970 d53d 4d07 c1bd 43f4 75bd bb68 f33c
000002c0: af6d 873d 89fd 2b3d aeea 3e3e 3b3b cb3d
000002d0: 6195 5a3d 7eb1 babb 7bee 7cbe 8eae 86bd
000002e0: 078d 763d c9e3 093e
0.053771414 -0.054458905 0.0071583446 0.15986879 0.11443238 0.029424716 0.01581707 -0.1411595
-0.09911343 -0.012442805 -0.011707466 -0.12172812 0.37627703 0.15369855 0.07867134 0.035493493
0.09524932 -0.09998734 -0.15675868 0.20915595 0.060919836 0.07515763 0.061472595 0.12395991
0.20232485 0.06313353 -0.09034183 0.097822234 0.04702333 -0.10555741 -0.027191602 -0.04056462
0.12187982 0.4838343 -0.09617341 0.016967684 0.11307808 0.19060136 0.04953499 0.0656582
0.7281095 -0.21352667 -0.052722536 -0.04148548 0.10960206 0.006709233 0.13604058 -0.002521541
-0.15688959 -0.0466458 0.06324602 0.079290606 -0.09929317 0.10404657 0.009528349 -0.03503638
0.027826428 -0.006251587 -0.34281197 0.25066984 0.08619285 0.13547948 0.16293563 -0.02982774
-0.25178903 0.45726606 -0.0716277 0.35594204 -0.2530707 -0.19387704 0.087864354 0.2633937
-0.15117908 0.37259763 0.3484226 0.11385474 0.083095156 0.015571715 0.063427195 -0.082304075
0.37374026 0.32699683 -0.0710904 -0.17355293 0.44129506 -0.1279638 0.3449801 0.059894606
0.068564564 0.049681623 -0.124095134 0.25873387 0.1473312 0.059474453 0.1680643 0.2155837
-0.26861733 -0.13335103 0.33833826 0.50637877 -0.0077455714 0.41579095 0.09234139 -0.23617606
-0.0060727308 0.10157974 -0.12840742 -0.08016144 -0.14894651 -0.019701794 -0.270975 -0.02382936
-0.07197779 -0.052579053 -0.14418481 -0.09894674 -0.22021559 -0.28829017 -0.03181479 -0.07578352
-0.2176988 0.4579543 -0.21764979 0.006617017 -0.19042487 0.12739778 -0.0036702766 0.037998695
0.11160594 -0.021444501 -0.023637176 0.11759606 0.056914315 0.06717821 -0.10726376 -0.16340025
0.16593029 -0.041988187 -0.06672317 0.06466819 0.03989738 -0.009323912 -0.05842638 -0.056987446
0.053841382 0.09744738 -0.010820005 0.056275185 -0.011626815 -0.13100626 0.06499544 -0.12044111
0.15155403 -0.027416075 0.25104004 0.0052295327 0.0007161261 0.28966686 0.12620665 0.13996148
0.15357631 0.11744527 -0.07169868 -0.08096753 0.6811071 -0.02631619 -0.0007941811 0.16511796
-0.09061317 0.01906608 0.11328415 -0.10017632 0.10421867 -0.09425221 -0.0600474 0.029713025
0.06612717 0.041989837 0.1864421 0.09923407 0.053365115 -0.0056974282 -0.24700348 -0.065762624
0.060193088 0.134658

net.4.bias f4 [3]
00000000: 44b9 643d 8105 4bbe a6fa 313e
0.055840746 -0.19826318 0.17380771
