models/dqn_crypto_BTCUSDT.pth (torch, 662070 bytes, 6 tensors)

net.0.weight f4 [76, 2088]
000000 00 76 3b 3c ab 4f cc 3b 90 59 5e bc 2d a3 79 bc
       0.011441708 0.006235083 -0.013571158 -0.015236658
000010 cc e2 a5 bb be 4d 83 3b ad 75 43 bc e5 23 98 3b
       -0.0050624367 0.0040070703 -0.011929912 0.004642951
000020 76 e0 8d 3b e7 9b 2e 3c e3 c8 48 3c c1 a6 d9 bc
       0.0043297363 0.010657287 0.012254926 -0.026568772
000030 ab f1 bd bb 59 0b d5 bc 1a 9e 5f 3c 9b 1a 03 3c
       -0.0057966313 -0.026006388 0.013648534 0.008001949
000040 72 ef 2a bc aa cb d9 bc 0f a0 da bc eb 59 63 bc
       -0.010433065 -0.026586372 -0.02668765 -0.013876419
000050 22 f7 39 bb 23 4e c9 bb 7a 05 a1 bc 7f 9b b9 bc
       -0.0028376062 -0.006143348 -0.019655932 -0.022657154
000060 1a dc 53 3c b2 10 dc 3a 55 50 cd 3b dd 0b 67 bc
       0.012930894 0.0016789644 0.00626568 -0.0141019495
000070 8c 70 b5 bc c0 31 a2 bc 9c 1a ab bc 25 46 a6 bc
       -0.022148393 -0.019799113 -0.020886712 -0.02029712
000080 34 53 3d bb ec 27 26 3c 71 3e c5 ba 97 dd c9 3b
       -0.0028888704 0.010141354 -0.0015048516 0.006160449
000090 01 78 0d 3c 10 ec 8b bc 59 37 d5 3b f9 6a 84 bc
       0.008634568 -0.017080337 0.006506842 -0.01616429
0000a0 76 28 c3 3b b0 f8 c1 bc ec 26 48 3b 1e 6c 8b bc
       0.005955751 -0.023678154 0.0030540777 -0.017019328
0000b0 e3 2e ec ba a4 ff 54 bc 47 ff db bb 13 5f 0f 3c
       -0.0018019344 -0.013000403 -0.006713781 0.008750695
0000c0 22 9a 49 3b 50 88 31 3c b9 76 c0 bc ee 9b c7 bb
       0.0030762036 0.010835722 -0.023494111 -0.0060915863
0000d0 28 03 82 3c de 36 8f bc 6d 6d 82 bc eb ab 67 3c
       0.015870646 -0.017482217 -0.015921319 0.0141401095
0000e0 d0 da ad bc 4f fc 75 bc 93 5f 75 bc 1c 79 cd 3b
       -0.021222502 -0.015013768 -0.0149764 0.006270541
0000f0 39 62 07 3c c2 ac 8e 3b 51 ca 2d bc 94 b3 7b bb
       0.008263164 0.0043540904 -0.010607318 -0.0038406597
000100 72 ef 1b 3c 4a 1a d7 bb 29 2c ba bb 20 8c c4 bc
       0.009517537 -0.006564413 -0.005681534 -0.023992598
000110 e6 cf 47 3c 25 40 58 3c 4a ff d7 bc 10 2f 94 bc
       0.012195563 0.013198887 -0.026366848 -0.018088847
000120 5b 88 77 bc d9 21 83 3a b1 ee a6 bb a2 15 07 bc
       -0.015108193 0.0010004594 -0.005094372 -0.008244904
000130 0d 5a 10 bb f6 ac 7c 3c 85 c2 7b 3c 00 8f cc bc
       -0.002202633 0.0154220965 0.015366201 -0.024970531
000140 74 64 07 3c 22 91 5f bc 2d 85 73 3c 33 aa 2b 3a
       0.008263696 -0.013645442 0.014863295 0.0006548494
000150 3c ad 66 bc 93 bf c0 bc ab a0 5a bc b2 ca 24 3b
       -0.014079388 -0.02352885 -0.01334397 0.002514523
000160 02 9f 77 bc a9 d6 f3 bb a2 0e 27 bc 89 56 1e ba
       -0.015113594 -0.007441361 -0.01019636 -0.00060401164
000170 b9 d0 49 bc 34 e3 46 3b 52 f1 8b bc d4 a1 cb bc
       -0.01231783 0.0030347826 -0.017082844 -0.02485744
000180 31 d4 62 bc 31 d5 db bc c9 70 4d bb ef 8f 37 bc
       -0.013844536 -0.026835056 -0.0031347743 -0.01120375
000190 85 48 64 3c e1 86 ee 3b 64 fc 1f bc 2a 7f ff 3a
       0.013933306 0.0072792624 -0.009764764 0.0019492854
0001a0 5b ab 1f 3c 91 be 45 ba c6 39 4c bc 89 b5 e2 bb
       0.009745444 -0.000754335 -0.012464946 -0.0069186133
0001b0 ca 75 9b 39 19 68 fa ba 85 d3 6b bc 3f 7b 0d bc
       0.00029651663 -0.001910451 -0.014393692 -0.008635341
0001c0 1f 64 58 3c 28 05 66 3c 54 ae d2 bc 81 1c 9e bc
       0.0132074645 0.014039315 -0.025717892 -0.019300701
0001d0 04 d8 c2 bc d9 cc 46 3c 46 03 02 bb f8 02 a6 bb
       -0.023784645 0.0121338 -0.0019838377 -0.005066272
0001e0 c6 c9 4f bc c7 f1 ef 3b bb 6b bf bc ed cc 60 bb
       -0.012682384 0.0073225233 -0.0233668 -0.0034301833
0001f0 d0 35 10 bc 48 99 72 3c f2 1a 1c bc d5 0c 3c bc
       -0.008801892 0.014807053 -0.009527909 -0.011477669
000200 cf 3c 5e 3c 12 e0 db bb 70 48 00 3c 08 40 1d 3b
       0.013564303 -0.006710061 0.00782977 0.0023994464
000210 2f 9c a4 3b 19 15 31 bc ed 91 12 bc 9b 1a 15 bc
       0.0050235013 -0.010808253 -0.008945924 -0.0091005815
000220 da 2a f2 3b 7d a2 3a 3b de 59 b5 bb 7e e0 61 bc
       0.007390362 0.0028478198 -0.0055343946 -0.013786433
000230 66 85 d3 bc 1c b5 73 3b 10 30 9d bc d1 c1 9f bb
       -0.025820445 0.0037186807 -0.019187957 -0.0048753996
000240 67 d6 78 bc b0 01 1b bc a8 b5 ee 3b c8 03 eb 3b
       -0.015187836 -0.009460852 0.0072848387 0.0071720816
000250 ef 43 81 3c ce f3 c1 bc 6a e6 23 3b a3 ab 63 3c
       0.015779464 -0.023675825 0.0025009164 0.013895902
000260 40 0c 2c 3c 12 92 48 3c eb f3 26 3c 6e e4 a3 3b
       0.0105009675 0.012241857 0.0101899905 0.005001596
000270 40 fb 0d 3c a7 f7 2a 39 15 54 9f 3b ad 7b b2 bb
       0.00866586 0.00016304721 0.0048623183 -0.005446872
000280 0c c0 71 3b 59 0e 9d 3a 5f 58 d6 bc 83 dd c4 3b
       0.003688815 0.0011982425 -0.026165185 0.0060078516
000290 0a f8 82 39 63 ed 08 3c ac ee 6f bc d2 f3 3f bc
       0.00024980336 0.008357379 -0.014644306 -0.011715846
0002a0 69 53 a4 bc d9 0d 40 3c dc 6a ac 3b 15 e9 a5 bc
       -0.020059304 0.011722052 0.005261762 -0.020252744
0002b0 8a de 78 3c a1 87 a1 bc 5a 59 63 3b 07 c4 c1 ba
       0.015189776 -0.019717993 0.003469071 -0.0014783152
0002c0 41 2d 43 bc 2f ee 57 bb 32 1d 11 3c 1a 5d 76 bc
       -0.011912645 -0.0032948365 0.008857058 -0.015036846
0002d0 15 55 b5 3b 92 95 6b 3c c9 90 0f 3c 71 c8 25 3c
       0.005533824 0.014378922 0.008762547 0.01011859
0002e0 7f 1a 24 bc 54 01 d0 bb 11 3c a6 bc 47 41 ff b9
       -0.010016083 -0.0063478146 -0.020292314 -0.00048686026
0002f0 c5 af 9a bc ee e2 05 bc 98 68 6b 3b 49 bd 7a 3c
       -0.018882642 -0.00817178 0.0035920497 0.015303918
000300 e2 13 8b bc c7 38 01 3c 1f 46 c3 bb 70 73 a1 bc
       -0.016977254 0.007887072 -0.005959287 -0.019708365
000310 8e bf e9 bb 7b 30 d2 3a 65 08 17 bc 75 d2 dd bb
       -0.007133431 0.0016036177 -0.00921831 -0.006769473
000320 ac cc dd 3b 92 54 af bc 15 17 33 bc 18 23 df bc
       0.0067687836 -0.021402631 -0.010930796 -0.027238414
000330 dd 0c 67 3c 0b 57 ad bb a2 d8 92 3b a7 78 c2 bc
       0.014102188 -0.0052899173 0.004481391 -0.023739172
000340 0c 01 db bc a0 e3 11 3b 9a 47 6f bc d1 5e db bb
       -0.026733898 0.002226092 -0.0146044735 -0.0066946526
000350 de fa b8 ba 61 d5 c6 bb 43 80 eb 3a df b4 a6 bc
       -0.001411285 -0.006067917 0.0017967302 -0.020349918
000360 23 5c 58 bc f9 92 5a 3c 1f a3 0c 3c e7 46 04 bc
       -0.013205561 0.013340705 0.008583813 -0.008073545
000370 5c 83 09 3c b2 b8 f9 3a 1e f8 7e bb 84 10 47 3c
       0.008393135 0.0019052236 -0.0038905214 0.012149934
000380 a8 d2 e2 bc e8 45 25 3b 5c 3d 1e bc 78 6e e2 bc
       -0.02768834 0.002521867 -0.009658184 -0.027640566
000390 8f 18 c6 bc 45 74 4c ba 44 c8 e7 3b c8 74 8c ba
       -0.024181632 -0.0007799308 0.007073434 -0.0010715956
0003a0 2b e8 69 bc 7c 31 1a 3c c2 ef 75 bc 07 84 45 bb
       -0.014276545 0.009411212 -0.015010776 -0.003013851
0003b0 70 f1 33 3b ce 1b a6 3b e4 ca 05 3c 0e a6 84 bc
       0.002745714 0.0050692325 0.008166049 -0.016192462
0003c0 0b 28 db bb ed 91 92 bc de 0c 5e 3b 5f 90 9a bc
       -0.006688123 -0.017891848 0.003388218 -0.01886767
0003d0 9c 91 7b bc 63 9b 61 bc ed 4d df bb 96 08 6c 3c
       -0.01535454 -0.013769957 -0.0068147094 0.014406344
0003e0 e3 1c 7e bc f2 9b 40 3b 53 4f ca 3b 0d c6 08 3b
       -0.015509817 0.0029389826 0.006174007 0.002087
0003f0 56 84 87 bc 44 27 60 3c 8f c4 6c 3c 4c d6 50 3c
       -0.016542595 0.013681237 0.01445116 0.012746405

net.0.bias f4 [76]
000000 e0 99 55 3c b1 12 d6 bb 74 37 32 bd 97 70 8c bc
       0.013037175 -0.00653299 -0.043509915 -0.01714353
000010 5f bd 0f bd 22 2d 0a 3c b9 98 0e bb 35 4a 1e 3b
       -0.035092708 0.008433612 -0.002175851 0.0024153118
000020 c0 a7 95 bc 6c c8 a6 bc 37 64 c5 bc f8 5d 1c bc
       -0.018268466 -0.02035924 -0.024095638 -0.009543888
000030 a0 f3 99 bb 24 ec 01 bc 11 74 e6 bb b1 c5 60 3c
       -0.004698232 -0.0079298355 -0.007032879 0.013719008
000040 4a b2 af 3b 0d 38 c0 3b 61 90 b0 bc ad f3 47 bc
       0.00536183 0.005866057 -0.02155322 -0.012204093
000050 cd f7 00 bb 24 b7 20 bc 19 57 76 3b b0 2e 23 3b
       -0.001967895 -0.009809289 0.0037588535 0.0024899654
000060 03 6a 3c 3c cb 13 83 3c 9d 82 11 bc 0d 15 ae 3c
       0.011499885 0.016000649 -0.008881238 0.021250272
000070 2d cc 05 bc be f4 f6 3a c8 c7 49 bc 56 8e ba 3a
       -0.008166355 0.0018841249 -0.012315698 0.0014233093
000080 dc 5c 2f bc 59 7d bf bc b0 fd 31 bc e0 b1 a6 3a
       -0.010703292 -0.0233752 -0.0108637065 0.0012717806
000090 e8 35 36 bc f4 d3 34 3c a6 08 b4 3c bf e2 c5 bc
       -0.011121251 0.011036862 0.02197678 -0.024155973
0000a0 10 d0 c4 bc 2c 0c 8c bb 25 a8 12 3e 57 9e 9f bc
       -0.024024993 -0.004273912 0.14321955 -0.019484682
0000b0 eb 91 e2 3b 79 f1 61 ba b2 8c 83 bc 85 78 37 bc
       0.0069143674 -0.0008619051 -0.0160583 -0.011198168
0000c0 0a b5 c1 bc e8 c1 5d bb a0 b8 6a bb 39 00 7e 3b
       -0.023645896 -0.00338375 -0.0035815611 0.0038757457
0000d0 c5 04 dd bc 58 46 68 bb d4 be 55 bc 73 ab 28 ba
       -0.026979813 -0.0035442319 -0.013045985 -0.00064342393
0000e0 99 8a 49 bc 66 42 55 3c da c9 cc bc 00 05 8b 3c
       -0.012301111 0.013016319 -0.024998594 0.016970158
0000f0 a7 55 bf bc 11 30 50 3c 6c eb 06 3c 8b a9 1d 3c
       -0.023356272 0.012706772 0.00823484 0.009622942
000100 ff 3f 3f bc 54 00 3d bb 18 59 9b bc bf a6 81 bc
       -0.011672973 -0.0028839307 -0.018963382 -0.015826581
000110 c7 8d b8 bb 0a 9c ed 3a 40 78 63 3a f0 c3 f1 3b
       -0.0056321356 0.0018128168 0.00086772814 0.007378094
000120 2f 16 c5 bc 09 5b cc 3b 7b e7 75 3c cb 69 a2 bc
       -0.02405843 0.006236438 0.0150088025 -0.019825837

net.2.weight f4 [76, 76]
000000 00 28 90 38 93 96 7f bc 8f a3 a4 bd 61 8f 29 3d
       6.873906e-05 -0.015599865 -0.08039009 0.041396502
000010 a2 bd 2a 3d 3c 6f e6 3c 43 ea b5 3d d4 69 94 3c
       0.041684754 0.028129213 0.088825725 0.018116869
000020 14 2b 8d 3d 13 18 a4 3d 7f 2a d1 3d ff 73 bb 3d
       0.06892982 0.08012404 0.102131836 0.09152984
000030 c0 fc 90 3a d5 09 cc 3d c0 9f 9f 3d 3f e3 a8 3d
       0.0011061653 0.09962813 0.07794142 0.08246469
000040 b7 e6 81 bd ad db a2 bc 8a 10 61 3d 59 37 38 bd
       -0.063428335 -0.01988014 0.054947414 -0.04497466
000050 3a 0c bf bd e1 8e bb 3c ea f0 2b 3d 65 24 9b 3d
       -0.09328504 0.022895278 0.0419778 0.07575301
000060 51 6f e5 bd 0a e6 7a bd 22 49 b9 3d 8c 0d fa 3c
       -0.112028725 -0.06125454 0.09047152 0.030524038
000070 13 fc 56 bd 4a 9f b7 3d 2b 3b 1b bd 47 01 33 bb
       -0.05248649 0.08965929 -0.037898224 -0.0027313994
000080 60 fc 56 bd 60 5a 65 bc c7 81 d6 3d f0 b4 53 bc
       -0.052486777 -0.013998598 0.10473972 -0.012921557
000090 b4 1b c4 bc 16 ab 70 bd 0e 1c be 3d 6f d4 c0 bc
       -0.023938991 -0.05875691 0.09282695 -0.023538796
0000a0 28 3f 30 3c 87 5c 87 3d cc 1c 8d bd e6 bf 39 3d
       0.010757245 0.06609445 -0.06890258 0.045349024
0000b0 f0 1c 48 bc 15 ca 9f bc 1b d6 a1 3d 16 ca 56 3d
       -0.0122139305 -0.01950554 0.079021655 0.052438818
0000c0 a1 31 0c bc b3 a7 11 bd 6c b9 8b 3c da 80 77 3d
       -0.008556754 -0.03556032 0.01705619 0.060425617
0000d0 7f 12 05 bc 21 79 c9 3d 45 f2 79 bd a0 6e 7c 3d
       -0.008122086 0.09837557 -0.06102206 0.061628938
0000e0 63 31 86 3d b4 1f 92 3c ca ed 35 3d 1f 43 b7 bd
       0.065523885 0.017837383 0.044416226 -0.08948349
0000f0 5e 48 88 bd 20 47 01 bd d4 05 b1 3c af db 1d bd
       -0.06654428 -0.03156197 0.021609224 -0.038539585
000100 76 1d bd bd 4b c8 d8 3d a5 60 a4 bd 2b 18 93 bd
       -0.09234135 0.10585078 -0.08026246 -0.07182344
000110 72 ec bf 3d 40 b8 4e bd ae 85 46 bd 2a 63 b9 3d
       0.0937127 -0.050468683 -0.04846733 0.09052117
000120 0d df 08 bd bf c0 bb bd 24 f8 b8 3c c8 21 13 3d
       -0.033415843 -0.09167623 0.02257926 0.03592089
000130 fa 9b dd bb fc 7d d0 bd f0 19 93 3d 3f 9e f0 3d
       -0.0067629786 -0.101802796 0.071826816 0.11748933
000140 27 63 3f bc 04 33 91 3c ee 6d 8d 3c 0f e7 a5 3d
       -0.011681355 0.017724521 0.017264333 0.081007116
000150 04 6b cd 3d b8 17 1f 3c af d4 a2 bd 16 70 9f 3d
       0.10030177 0.009710245 -0.079507224 0.077850506
000160 e1 b3 87 3d 8d a5 03 3d 7a b4 91 bd 28 35 13 3d
       0.06626106 0.032140303 -0.07114501 0.035939366
000170 4c c9 05 3d 21 e1 40 bc e0 0c 10 3d 7f ed f5 3d
       0.032662675 -0.011772425 0.03516853 0.120081894
000180 23 89 53 3d c3 25 d5 3d 71 56 0d 3c a4 df 9b bd
       0.051644456 0.10407593 0.008626566 -0.076110154
000190 dc aa 1f bd e0 34 89 bd a9 a2 de bd 21 43 88 3d
       -0.038981304 -0.06699538 -0.10870869 0.06653429
0001a0 a4 e8 c6 3d 78 c8 45 3d 9d 22 ef 3d 66 3d ac 3d
       0.097123414 0.048286885 0.11676524 0.08410148
0001b0 d1 4a 0e 3d e3 50 8c 3c 55 b0 8f bd e6 31 48 bd
       0.03473932 0.017128414 -0.070160545 -0.04887571
0001c0 2a 75 12 3c 36 2c 2d 3d f2 e7 6a bd 51 5a a6 bc
       0.008939067 0.04227849 -0.057350107 -0.020306738
0001d0 74 f7 c1 bc a5 bf 8d bd 0f ce 58 3f 93 a1 97 3d
       -0.023677565 -0.06921319 0.8468942 0.07403865
0001e0 87 98 48 3d c5 1b 91 3d 0b a1 f4 bd bb 61 b6 bd
       0.048973586 0.07085375 -0.11944779 -0.08905359
0001f0 5d 82 25 bc e1 d8 28 bd 04 a8 e0 3c 65 ed 6e bd
       -0.010101882 -0.041222457 0.027423866 -0.058331866
000200 ec 88 ef be c7 76 c0 bd 8f 57 95 bb 6d 47 70 bd
       -0.4678415 -0.09397655 -0.004557557 -0.058661867
000210 33 01 5f bc a6 dd 6f 3d 2e f4 bb bd eb 8d 85 3d
       -0.013611126 0.05856099 -0.09177433 0.06521209
000220 02 fb b0 3d 34 54 89 3d 59 8a b5 bd 82 1e 55 3d
       0.08641626 0.067055136 -0.08864278 0.052031048
000230 36 29 a8 3d d7 56 fb bc 30 ba dc bd 9e 73 40 ba
       0.08210985 -0.030681057 -0.107777 -0.0007341447
000240 1a 18 40 bd f4 1d 2d 3c 6c 61 3e bd d6 1d e5 3d
       -0.046897985 0.010566223 -0.046479627 0.111873314
000250 b6 89 77 bd 66 e6 a3 3d 68 0c 35 3b a8 77 98 3c
       -0.060434066 0.080029294 0.0027625803 0.018611744
000260 2d 19 9c bd 7e d9 5d 3d 6f e8 a9 3e 49 40 cb 3d
       -0.076219894 0.054162495 0.33185145 0.09924371
000270 e6 48 80 bd 78 ea a2 3d 35 2e ef bd 5f c2 81 ba
       -0.06263904 0.079548776 -0.11678735 -0.0009899846
000280 b9 0b 9d bd 20 03 2f bd e0 d5 84 bd 8f 76 db 3d
       -0.076682515 -0.04272759 -0.06486106 0.10715973
000290 7e 9a 71 3d 46 3a 82 3c 9d 01 e1 bd 1f 53 05 bd
       0.058985226 0.015896928 -0.10986636 -0.032549974
0002a0 65 60 24 3d b7 75 db 3d 2e 0d df bc 40 89 36 3d
       0.04013099 0.10715812 -0.027227964 0.044564486
0002b0 83 c4 a1 3d 07 d6 95 3d fc 76 03 3d 85 ac 45 bd
       0.0789881 0.07316213 0.032095894 -0.04826023
0002c0 6c ce eb bc a6 c0 69 3d 0c 5b 06 bb 84 06 9a 3c
       -0.028784953 0.05706849 -0.0020501046 0.018801935
0002d0 9b ad c3 bd 21 f0 70 3d 69 f1 84 3d 15 e5 1b bd
       -0.09554597 0.058822755 0.06491358 -0.038060267
0002e0 24 6e cc bd a0 a3 f6 bc 39 73 df 3d 50 8f 8a 3b
       -0.09981945 -0.03010732 0.10910649 0.00422851
0002f0 be 5c c0 3d e6 05 33 bb 2e 07 3c 3c b5 58 3a 3d
       0.09392689 -0.0027316748 0.011476321 0.045494754
000300 fb d1 7a 3d e1 de b9 bd 97 38 cc be 1a b6 80 bd
       0.06123541 -0.09075714 -0.39886925 -0.06284733
000310 af 40 ad 3d 68 72 a0 3d af 9e f0 3c 9c 46 8c 3d
       0.08459603 0.07834321 0.029372541 0.06849405
000320 87 37 31 3c c8 5c d4 3d d5 39 a2 bd b4 d5 19 bd
       0.010816461 0.10369259 -0.07921187 -0.03755732
000330 b0 cb bf 3d 68 b1 02 3c aa 2c 43 3d 2a 58 79 3d
       0.09365022 0.007976867 0.047650017 0.060875095
000340 57 86 8b 3d 5a b4 09 3d d6 7b 96 bd a4 a0 ee 3c
       0.06812733 0.033619262 -0.073478386 0.029129334
000350 71 c9 a6 3d 10 6d d0 bd 1c ca a8 3d de b4 4c bd
       0.08143891 -0.10177052 0.08241674 -0.049977176
000360 20 8c 89 3d ea 8c 29 bd ee 59 83 3d 59 fa 1b 3d
       0.0671618 -0.04139415 0.06413637 0.038080547
000370 72 eb e5 3d 40 1d 45 bc 5d ac 5a bd 44 5c c6 bc
       0.11226548 -0.0120308995 -0.053387035 -0.024213918
000380 9a 5c 10 3d f9 1e a3 3d 21 ad ce 3c 2c f7 83 bd
       0.03524456 0.07964892 0.025229039 -0.06443629
000390 70 04 0e bc 52 51 9f bd 3d 1e d1 bd 54 47 e1 bc
       -0.00866805 -0.077791825 -0.102108456 -0.027499832
0003a0 81 78 ce bd 74 23 ad 3c 0c 9d f7 3c c8 6a 53 bd
       -0.10081578 0.02113507 0.030226253 -0.051615506
0003b0 ad 7a 3c bd 22 50 df bd f7 33 8a 3d 80 23 0e bd
       -0.04601543 -0.10903956 0.06748193 -0.034701824
0003c0 2c e3 e3 3c 8e 0c 36 3d 16 af ca bd 16 bb ea bd
       0.027818285 0.044445567 -0.09896676 -0.11461465
0003d0 0a 93 00 3d 68 e2 8b bd b0 b2 9b 3b 48 de bf bd
       0.031390227 -0.06830293 0.004751526 -0.09368569
0003e0 b8 9e 48 3c 2a b4 e2 bd d1 a9 c0 bd 14 c3 53 3c
       0.012244873 -0.1106952 -0.0940739 0.012924928
0003f0 92 e8 3f 3d 15 33 b9 3d af 3e ce 3d 60 d5 05 bd
       0.046852656 0.09042946 0.1007055 -0.032674193

net.2.bias f4 [76]
000000 17 d6 29 be 7c 6c 81 bd b8 9c 39 bd ad ae 42 be
       -0.16585575 -0.0631952 -0.045315474 -0.19011946
000010 f5 ad 01 be b5 c4 05 40 07 c8 00 be 1f 90 53 be
       -0.12664016 2.090131 -0.12576304 -0.20660447
000020 31 7d 83 be 17 37 55 ba 8b 2a f3 bc fd 23 37 3f
       -0.2568145 -0.0008133514 -0.029683372 0.7153929
000030 e9 86 42 be fa e8 c6 bd 25 94 55 bc a9 a9 ed 3f
       -0.18996777 -0.097124055 -0.013035809 1.8567401
000040 e3 36 36 bd f2 a5 90 bd 85 c7 0b 3e 27 31 83 bc
       -0.044485938 -0.070629016 0.1365033 -0.016014649
000050 bc d7 af be b0 75 d1 bd 54 e0 7a bd 7c 27 1f bd
       -0.3434428 -0.10227525 -0.061249092 -0.038856015
000060 8e d7 c4 bc e0 1f c1 be f9 8c 3d 3e 6d 43 02 bd
       -0.024028566 -0.3771963 0.18510808 -0.031802583
000070 4d 00 b7 bc d1 5b 9e bd 92 03 f5 3f 2e 9a 89 3e
       -0.02233901 -0.07732356 1.9141715 0.26875442
000080 91 ee 60 bd 4e 65 0a be b5 35 44 be cf ee 57 be
       -0.054915015 -0.13515207 -0.19161113 -0.21087192
000090 1e 8b a4 be d4 3c 69 bd c5 96 28 be f5 a6 36 be
       -0.32137388 -0.056942776 -0.16463764 -0.17837127
0000a0 92 b9 99 3e 70 b5 d6 bd b3 c6 3c bd 53 49 b3 be
       0.3002439 -0.10483825 -0.04608793 -0.3501688
0000b0 88 91 b8 be b7 5a c8 bd 00 a5 2c 3e e4 e5 69 3f
       -0.36048532 -0.097829275 0.16859818 0.9136641
0000c0 93 c3 29 bb a3 f6 35 bc 2c b7 6e bd e4 d1 2a 3e
       -0.0025903925 -0.011106166 -0.058280155 0.1668163
0000d0 d6 d5 08 bf 38 85 02 be c2 39 09 40 c7 8f e9 3f
       -0.5345129 -0.12746131 2.1441503 1.8247002
0000e0 b9 be bc 3e b8 1c b0 bd 6a e4 98 be 96 51 a4 bc
       0.3686426 -0.08599228 -0.29861766 -0.020058434
0000f0 3b f0 32 3e 0e b5 b2 bd 72 fb 0d bc 82 2a ef bb
       0.17474453 -0.0872594 -0.008665906 -0.0072987685
000100 3e cb cb bd 04 f4 d8 bd 6b ee af bd 0a 82 0d bd
       -0.09950875 -0.10593417 -0.085903965 -0.034547843
000110 4e ff 0e 3d a9 39 68 be bc b6 97 bc 17 54 2c be
       0.034911446 -0.22678246 -0.018519752 -0.16828953
000120 66 42 ce bd 51 11 9b bd c3 db 1c bf ea f2 07 3f
       -0.10071258 -0.07571662 -0.6127283 0.5310503

net.4.weight f4 [3, 76]
000000 e0 5b e7 3c 52 e1 d5 be b1 48 05 3e 66 8a b7 bd
       0.028242052 -0.41773468 0.13016011 -0.08961944
000010 c9 fd 37 bc b5 db de 3f a0 5c ba be 7d 37 37 be
       -0.011229941 1.7410799 -0.36398792 -0.17892261
000020 4d ba 92 3d 13 8f ce 3e 64 93 8a 3d 75 0a 9b be
       0.0716444 0.40343532 0.06766394 -0.30281416
000030 8b a9 2b 3b 1c ea 81 3e 5b b8 a1 be 31 99 58 3f
       0.0026193585 0.25373924 -0.31585965 0.8460875
000040 88 6c 8d be ce 59 24 bd d4 f1 86 3e c9 19 84 3d
       -0.27621865 -0.040124707 0.26356375 0.06450231
000050 9c 0f 53 3e 49 c2 0f 3d d8 ba 8c be df 9b 1e be
       0.20611423 0.035097394 -0.274863 -0.15489148
000060 d3 ac d2 be cc c4 94 3e 6d 56 59 3f c4 1b 8d 3c
       -0.4114748 0.29056394 0.848975 0.017225154
000070 19 a6 a5 bd 18 37 ab bc c1 9c cb bd 75 04 2b 3e
       -0.08088321 -0.020900294 -0.09942008 0.16700919
000080 94 79 94 bd c9 c3 1b 3d 3b 21 a1 3e a7 fc 9a 3e
       -0.07249752 0.038028512 0.31470665 0.30270883
000090 24 1b 10 3f 64 e1 9b 3c 3b fb 08 bf 87 fb 89 3e
       0.56291413 0.019028373 -0.5350835 0.26949713
0000a0 7d 74 89 3e 31 8a 2a 3e 3a c5 7b 3e 7c 18 8b 3d
       0.26846686 0.16654278 0.24586955 0.067917794
0000b0 ce c4 e3 3e 73 13 e9 be ec 14 37 be a8 28 d2 3d
       0.44486088 -0.4552265 -0.17879075 0.10261661
0000c0 00 9d 02 3c d2 07 bd 3b 11 18 55 3e 9e c7 d9 bd
       0.007972002 0.0057687545 0.20809962 -0.10633777
0000d0 a5 88 2b 3e 5b 35 a3 3d b5 07 e7 bf e0 0e a0 be
       0.16751345 0.07969161 -1.8049227 -0.3126135
0000e0 fd f2 8d be 79 21 d6 be b2 2b f0 3e b5 1c 58 be
       -0.27724448 -0.41822413 0.46908337 -0.21104701
0000f0 8a cb 46 be f6 5c 8e 3c 92 7c 3d 3d 59 c6 c4 3c
       -0.19413581 0.017378312 0.046261378 0.02402036
000100 27 98 4f bd 3c 99 1b 3d 12 bd 97 3b e2 60 3b bd
       -0.050682213 0.037987933 0.0046306932 -0.04574669
000110 d9 91 40 3d d5 2e 81 3c d8 f3 3d bd 3b a8 e8 bd
       0.04701409 0.015769402 -0.046375126 -0.113602124
000120 1a 5b 4b 3e c3 f7 19 3e 65 32 89 3c cf 6f f6 bd
       0.19858971 0.1503592 0.016747663 -0.120330445
000130 9d 0d 31 bc ac 1d 5d bf d5 80 87 3e 48 c8 aa bc
       -0.010806468 -0.863734 0.2646548 -0.020847455
000140 aa ea 3f 3d 3f 61 fd 3f 0d 0e d1 be f8 16 df 3c
       0.046854652 1.9795302 -0.40831032 0.027232632
000150 35 9c 04 3d 19 08 8b bd 57 58 b6 3d 10 ac 65 bf
       0.032375533 -0.06788654 0.08903568 -0.8971567
000160 7d fe 40 3d b6 fa 2a 3d 37 b3 65 bf 88 28 05 c0
       0.0471177 0.041743003 -0.89726585 -2.0805988
000170 57 d1 42 be 3f 28 35 bd 8f 15 41 bf 28 05 63 3e
       -0.1902517 -0.044227835 -0.7542352 0.22169936
000180 4a 36 33 3c 6d 0f 41 bd c0 b0 7c be 79 e5 27 be
       0.0109382365 -0.04713385 -0.246768 -0.1639613
000190 20 6e 4d bf b0 76 d7 bb 0d e2 62 be ed 2e c3 bb
       -0.8024616 -0.006575428 -0.22156544 -0.0059565217
0001a0 41 90 3e 3d 6d de 9c bc f3 59 4e 40 09 15 cc 3e
       0.04652429 -0.01914903 3.22424 0.398598
0001b0 72 01 33 ba 42 3c d9 bc 2d 6b b9 3e ea 10 d0 3e
       -0.00068285235 -0.026517991 0.3621458 0.40637904
0001c0 41 f9 1f 3f 21 65 89 bd c1 1e 26 bf 5d 80 65 3e
       0.62489706 -0.06708742 -0.64890677 0.22412248
0001d0 f9 73 52 bf d7 a7 33 3e 3d 6f 18 3e c5 55 3b bb
       -0.8220821 0.17544495 0.14886184 -0.0028585058
0001e0 7c 7d d9 3e 65 c1 17 bf ef 4c 25 bf f2 ff 49 bf
       0.4247855 -0.5927947 -0.64570516 -0.78906167
0001f0 ff 6b 8d bd 64 99 69 bd 1c b9 fa 3d f2 97 52 bf
       -0.06905364 -0.05703105 0.12242338 -0.822631
000200 15 d2 e0 3d 31 13 03 bd 06 1e 11 c0 d4 1e d9 3f
       0.1097757 -0.032000724 -2.2674575 1.6962533
000210 56 22 52 bf 63 c6 b7 be f1 35 2b 3f 2b 65 68 bf
       -0.8208364 -0.35893545 0.66879183 -0.9077937
000220 f1 01 25 bf 8e 6e d4 3c 54 6a 5d 3c 43 fa 84 3d
       -0.6445609 0.025931623 0.01351412 0.06493046
000230 1a 25 32 bd 15 3a b9 bd a7 7b a1 3d c6 b9 52 bd
       -0.043492414 -0.090442814 0.07884913 -0.0514467
000240 10 a5 f4 3e e1 ae af 3c 78 7d c4 3e 2c b0 04 bd
       0.47782183 0.021445693 0.38376975 -0.032394573
000250 8b bd 87 3e 61 5b a1 3e cf 18 9f 3d 5f 7d 5d 3e
       0.26511797 0.3151503 0.07768404 0.21629857
000260 63 64 da 3d 8a 86 29 be 36 af cb be 55 9c 54 bd
       0.106636785 -0.16555229 -0.39782113 -0.051906902
000270 fd 31 b8 bc 86 ea 86 3e 43 f1 58 3d 7e 27 9d 3c
       -0.022484774 0.26350802 0.05296446 0.01918387
000280 ae 9f 9a 3d 46 1b 9c 3e 75 74 14 bd 27 ca e0 3e
       0.07549988 0.30489558 -0.036243875 0.4390423
000290 5a 0a 11 bd 44 46 a3 3c a0 43 62 bd 50 c1 4e bc
       -0.035410263 0.019930966 -0.055240273 -0.0126193315
0002a0 b9 cd 40 bd b7 50 3c 3b 6c f2 1f 3e d5 ab f6 3e
       -0.047071192 0.0028734633 0.1561982 0.48177972
0002b0 cb c3 a1 3b 2e ec 8f bd 58 24 f0 bc b6 01 87 3d
       0.0049366704 -0.070274696 -0.029314205 0.06592123
0002c0 e3 6e 93 bd 19 c2 f1 3d ba 7f 78 bf 90 40 33 3c
       -0.07198884 0.11804599 -0.97069895 0.010940686
0002d0 5d 41 47 be 72 b9 e5 bc 28 01 a8 be 11 bc 22 3f
       -0.19458528 -0.028042529 -0.32813382 0.63568217
0002e0 1c 95 db 3d 23 2d f9 bc 75 5e 0b be 67 83 0f ba
       0.107218 -0.03041703 -0.13610251 -0.00054745976
0002f0 5c c4 4b bd 36 57 7e bd ed e4 59 3e 55 d2 13 be
       -0.04974781 -0.06209489 0.21278735 -0.14435704
000300 5b 7d 96 3d f7 0a 2a be a6 b9 80 bd f2 c9 32 3e
       0.073481284 -0.16605745 -0.0628541 0.17459849
000310 84 4a 65 3d cc e5 de 3b 2b de f6 bd db 35 06 3f
       0.055979267 0.0068022963 -0.12054094 0.52425927
000320 45 0e 92 bc 8b cd af 3d c4 4c 7a be 5a a9 7d 3e
       -0.01782907 0.08584126 -0.24443346 0.24771634
000330 ed 29 bb 3e 3f eb 66 bd ef 41 ac be c4 38 08 bf
       0.36555424 -0.056376692 -0.33644053 -0.5321162
000340 14 a9 96 be ca 64 7e 3d 5b 02 1c be d1 5a 72 3e
       -0.2942587 0.06210784 -0.15235274 0.23667456
000350 cb 21 1d bd 33 be c6 bd e2 51 3e bd 92 5b 92 bd
       -0.038362306 -0.09704246 -0.04646481 -0.07146372
000360 67 73 ec 3c 6d 05 e0 3c c8 e4 4f bd 03 2c 90 3d
       0.028863622 0.027346337 -0.050755292 0.070396446
000370 7b e0 ed 3e 38 88 84 bd 8c 03 d9 be 19 fa 94 ba
       0.46460328 -0.06471294 -0.4238552 -0.0011366039
000380 cf 0a 26 be 01 6e 3e be 1e 17 80 3e fa 7c 3c 3f
       -0.1621506 -0.1859665 0.25017637 0.736282

net.4.bias f4 [3]
000000 9f f6 d1 3e b4 ca f2 be 37 a6 10 3f
       0.4100847 -0.47420275 0.56503624
