models/dqn_cryptoBTCUSDT.pth (torch, 531692 bytes, 6 tensors)

net.0.weight f4 [128, 900]
-0.012218226 -0.037656363 -0.01435094 0.015544611 0.004478149 0.01216696 -0.0031399278 -0.0241986
0.008056818 0.0056720306 0.0060854843 -0.023070212 -0.00883114 -0.027639152 -0.03969719 0.01635468
0.0070695826 -0.010511358 -0.013249998 -0.0070144725 -0.03939222 -0.033147916 -0.040181056 -0.010694342
0.024615042 0.014466598 -0.04283952 -0.0015139875 -0.004555507 -0.040064663 -0.025579553 0.013438423
-0.026398838 0.014636492 -0.03897039 -0.024353856 -0.00048013433 -0.042926908 0.00014373894 -0.007480099
0.004340443 -0.010583832 0.009761342 -0.026021479 0.0059023537 -0.022515662 -0.0032800462 -0.040593766
0.018857231 -0.028399743 0.0141170155 -0.018005101 -0.025489323 -0.01355373 -0.015630938 -0.03226196
0.016809324 -0.027220784 0.0077051334 -0.007870815 -0.0405319 -0.03485894 -0.038981467 -0.016064227
0.019009773 0.00052611204 -0.004460416 0.013202498 -0.011011207 0.006883494 0.020722082 0.030390864
-0.03724844 -0.03955192 -0.03304244 -0.04741537 -0.011461128 -0.010250371 0.023152487 0.0014652569
-0.0112956455 0.005932382 0.017434554 0.019648664 0.010898233 -0.027987493 0.0153949605 -0.032543875
-0.042042617 -0.023538558 -0.034512423 -0.036080707 -0.009400428 -0.037116315 -0.021920282 -0.015596223
-0.030396659 -0.0027371673 -0.024303133 0.005370581 0.0013878583 0.014906485 -0.037802655 0.018644683
-0.023430798 -0.040492006 -0.0040839324 -0.002967237 -0.02394424 -0.012143991 0.017495066 -0.011439046
-0.039562646 0.014182271 -0.005239879 0.0016365122 0.011249515 -0.043939006 -0.0004582195 -0.00850821
-0.0249936 0.010426624 -0.0352446 -0.044343356 -0.022403885 0.012397722 -0.015852386 -0.022053715
-0.043470606 -0.008303535 -0.036431894 -0.037444033 -0.025754482 0.02037723 -0.028991247 -0.044322472
-0.020512909 0.0049139927 0.020039188 0.0187008 -0.012742532 0.0063394643 -0.011252537 -0.020412015
-0.030092878 -0.015714217 -0.0027664867 0.020765811 -0.012708512 0.01230279 0.0015383173 0.0037256773
-0.01462604 0.0022972082 0.020370208 -0.021969493 0.0059058126 -0.033139303 -0.011781911 -0.03818774
0.018528696 0.0014376335 -0.015381641 0.019836646 0.0043910784 0.009823281 -0.039601218 0.0040806383
-0.0294109 -0.002486243 0.004425966 0.018275786 0.0010920754 -0.024029605 -0.008953459 -0.00901349
-0.03921944 -0.02175059 -0.018966138 -0.011407311 -0.039731544 -0.030287694 -0.028993716 0.015316931
-0.03729403 0.0216516 0.008834711 -0.040546644 0.0052508335 -0.024174415 -0.013233416 -0.030360429
0.008772983 -1.4083694e-05 -0.004168872 -0.037777364 0.0048331646 -0.008428088 -0.0013374371 0.010176678
-0.021449419 -0.000523772 -0.015015762 0.012741232 -0.014938151 -0.025557753 0.01736995 -0.0083602555
-0.03370551 -0.028823167 0.0025671897 -0.019712005 -0.0028014379 -0.025150483 -0.029243875 0.010511317
0.0059964657 0.019331943 -0.041499607 -0.01826878 -0.03757573 0.015692063 -0.032932382 -0.010473519
-0.0122982655 -0.010239614 -0.017559098 -0.020626297 0.0041603064 -0.01465411 0.003266904 -0.004427901
-0.012798709 -0.008500936 0.009366965 0.008214088 -0.016258018 -0.006135237 0.0010005567 -0.010554043
-0.034017585 -0.003971509 -0.034046356 0.0020191194 0.0074465135 0.012714806 -0.039146643 -0.0027415014
-0.032658402 -0.015142991 0.009023783 0.03134182 -0.008025996 -0.006304421 0.014947854 0.010613403
00000000: f42e 48bc 8f3d 1abd 3420 6bbc d3ae 7e3c
00000010: 70bd 923b ee57 473c 3fc7 4dbb 243c c6bc
00000020: be00 043c 71dc b93b be68 c73b befd bcbc
00000030: 7cb0 10bc 816b e2bc 8599 22bd 40fa 853c
00000040: f5a7 e73b d537 2cbc 8516 59bc a9d9 e5bb
00000050: bd59 21bd 1cc6 07bd e494 24bd 5237 2fbc
00000060: 7ca5 c93c 4f05 6d3c 7e78 2fbd fe70 c6ba
00000070: 5d46 95bb d81a 24bd 368c d1bc d52c 5c3c
00000080: 6042 d8bc e6cd 6f3c 6a9f 1fbd bd81 c7bc
00000090: 8aba fbb9 20d4 2fbd a1b8 1639 9e1b f5bb
000000a0: 463a 8e3b cf67 2dbc 09ee 1f3c ff2a d5bc
000000b0: 8868 c13b c472 b8bc 0bf6 56bb a645 26bd
000000c0: 7b7a 9a3c 94a6 e8bc 0e4b 673c 6f7f 93bc
000000d0: fcce d0bc 7710 5ebc 740c 80bc 1e25 04bd
000000e0: b5b3 893c 1ffe debc 587b fc3b 97f4 00bc
000000f0: c704 26bd 3fc8 0ebd 08ab 1fbd 2099 83bc
00000100: 62ba 9b3c c8ea 093a ae28 92bb 4a4f 583c
00000110: 5968 34bc ef8e e13b 5bc1 a93c 43f6 f83c
00000120: d291 18bd 3201 22bd 8257 07bd 9e36 42bd
00000130: 74c7 3bbc 2cf1 27bc 49aa bd3c dd0d c03a
00000140: 5f11 39bc 6d64 c23b e9d2 8e3c 3cf6 a03c
00000150: 818e 323c 0746 e5bc 253b 7c3c ba4c 05bd
00000160: e134 2cbd efd3 c0bc e65c 0dbd 5dc9 13bd
00000170: 4104 1abc 4707 18bd 2a92 b3bc 4d87 7fbc
00000180: 6a02 f9bc 0c62 33bb 5d17 c7bc b3fb af3b
00000190: cce8 b53a 543a 743c f5d6 1abd bcbc 983c
000001a0: f2f1 bfbc f2da 25bd 82d2 85bb fa75 42bb
000001b0: b626 c4bc 97f7 46bc d051 8f3c d66a 3bbc
000001c0: 710c 22bd c25c 683c 4ab3 abbb 3d80 d63a
000001d0: e34f 383c 63f9 33bd 2e3d f0b9 0566 0bbc
000001e0: 61bf ccbc 6ed4 2a3c a45c 10bd 61a1 35bd
000001f0: 5a88 b7bc d11f 4b3c dddc 81bc fea9 b4bc
00000200: 3c0e 32bd 8d0b 08bc 9c39 15bd ea5e 19bd
00000210: 10fb d2bc 26ee a63c 0d7f edbc 7b8b 35bd
00000220: b00a a8bc 8f05 a13b 3929 a43c 6c32 993c
00000230: 0ec6 50bc 48bb cf3b 905c 38bc 1937 a7bc
00000240: 5785 f6bc 1abb 80bc f24d 35bb 101d aa3c
00000250: 5d37 50bc a491 493c 5da1 c93a 7e2a 743b
00000260: 0fa2 6fbc c28c 163b 6cdf a63c 5ef9 b3bc
00000270: 8c85 c13b 14bd 07bd eb08 41bc bf6a 1cbd
00000280: 7ec9 973c fa6e bc3a 4703 7cbc 7680 a23c
00000290: 09e3 8f3b d4f1 203c e334 22bd e0b6 853b
000002a0: 21ef f0bc 3cf0 22bb b207 913b 1ab7 953c
000002b0: f823 8f3a bcd9 c4bc 87b1 12bc 51ad 13bc
000002c0: 90a4 20bd 4b2e b2bc e05e 9bbc bbe5 3abc
000002d0: 8bbd 22bd e61d f8bc 3b84 edbc ddf3 7a3c
000002e0: a0c1 18bd b25e b13c 77bf 103c 3d14 26bd
000002f0: 2f0f ac3b 6c09 c6bc f8d0 58bc 6fb6 f8bc
00000300: 8fbc 0f3c 0149 6cb7 089b 88bb 70bc 1abd
00000310: 865f 9e3b f715 0abc f14c afba 15bc 263c
00000320: b1b6 afbc be4d 09ba ac04 76bc 9ac0 503c
00000330: 26bf 74bc 7e5e d1bc 6d4b 8e3c 74f9 08bc
00000340: ca0e 0abd 901e ecbc 4c3e 283b 127b a1bc
00000350: 5498 37bb 6308 cebc da90 efbc a937 2c3c
00000360: 007e c43b 065e 9e3c 7efb 29bd 69a8 95bc
00000370: 02e9 19bd a48c 803c 1be4 06bd 1f99 2bbc
00000380: aa7e 49bc 0ec4 27bc 19d8 8fbc 7bf8 a8bc
00000390: 2e53 883b cb17 70bc 8e19 563b ed17 91bb
000003a0: adb1 51bc 8347 0bbc e677 193c 6294 063c
000003b0: 892f 85bc 190a c9bb 1d25 833a ddea 2cbc
000003c0: 0656 0bbd 6f23 82bb 3174 0bbd 3453 043b
000003d0: e201 f43b c351 503c 3b58 20bd c3aa 33bb
000003e0: d1c4 05bd 4f1a 78bc 7dd8 133c 4860 003d
000003f0: 787f 03bc 5195 cebb d8e7 743c d7e3 2d3c

net.0.bias f4 [128]
-0.017271478 -0.03581862 0.020473754 0.0144788455 0.02509304 -0.0035657724 -0.031335257 -0.025606386
-0.018501947 -0.021426937 0.02585074 0.008877685 -0.014705774 0.011288158 -0.024720958 -0.019542478
-0.02900741 -0.037320923 0.009228679 -0.00901879 0.0038660185 -0.022362707 -0.030986492 0.11224549
0.020424893 -0.020269938 0.014244619 -0.02116051 -0.029441537 0.19227447 8.950195e-05 -0.037199784
-0.017607335 -0.013844526 -0.035995677 -0.037370637 0.035253577 0.085764974 -0.01993673 -0.019853652
-0.0139284255 -0.025415322 0.0013992504 -0.0071471366 0.01152748 -0.014403797 -0.015416164 0.0058326116
-0.0036632845 -0.013976288 0.017818725 -0.02453098 0.009408787 -0.003278102 0.018942097 0.014045607
-0.0058136205 0.002703391 -0.0063140737 0.02500717 0.017116154 0.018721161 -0.0037127486 -0.027422784
0.025889656 0.055461552 0.0022519655 -0.000484583 -0.012088296 0.00020817667 -0.023021312 -0.02508983
0.02052251 0.020528952 0.002618786 -0.014324653 0.010954252 -0.03130851 0.02435689 0.023558501
0.016568072 -0.0017750004 -0.031084076 -0.015393276 -0.024515472 -0.0025606821 -0.015937798 0.017565776
0.016343638 0.0035789642 -0.023177492 -0.023881711 -0.009163928 0.026794009 -0.029864838 0.021891722
-0.011877794 0.019383492 -0.019902654 -0.012342251 0.022506014 -0.020453455 -0.027486987 -0.031535428
-0.012557407 -0.0015051181 -0.031576153 0.020702442 0.026669998 0.0099243615 -0.03816089 -0.0015246401
0.0046392735 -0.020631263 0.020219658 0.008712874 0.00048573388 -0.037678447 -0.019582888 -0.02154778
-0.010242265 0.005805567 -0.00011580651 -0.03101809 -0.018746212 0.015798816 -0.0012846105 -0.019477641
00000000: ea7c 8dbc 8cb6 12bd 93b8 a73c ae38 6d3c
00000010: eb8f cd3c bcaf 69bb 6659 00bd 7cc4 d1bc
00000020: 6591 97bc 8b87 afbc eec4 d33c b673 113c
00000030: 7df0 70bc f7f1 383c 9b83 cabc 8c17 a0bc
00000040: f3a0 edbc d3dd 18bd e333 173c 8cc3 13bc
00000050: 075d 7d3b ff31 b7bc 62d7 fdbc f7e0 e53d
00000060: 1b52 a73c 240d a6bc 4362 693c ce58 adbc
00000070: 612f f1bc 99e3 443e feb2 bb38 cd5e 18bd
00000080: 423d 90bc 27d4 62bc 3470 13bd f411 19bd
00000090: 0e66 103d 8ca5 af3d 5a52 a3bc 20a4 a2bc
000000a0: 0d34 64bc cb33 d0bc 0d67 b73a 8732 eabb
000000b0: c1dd 3c3c e7fd 6bbc 1494 7cbc 7e1f bf3b
000000c0: b713 70bb cdfc 64bc 93f8 913c 32f5 c8bc
000000d0: 5027 1a3c 6dd5 56bb 752c 9b3c 8c1f 663c
000000e0: 2f80 bebb 602b 313b 4ae6 cebb d6db cc3c
000000f0: 2d37 8c3c 1f5d 993c 9651 73bb bfa5 e0bc
00000100: 8b16 d43c a72b 633d b695 133b a10f feb9
00000110: fd0d 46bc 004a 5a39 3197 bcbc 3089 cdbc
00000120: d31e a83c 552c a83c f09f 2b3b f3b1 6abc
00000130: 7779 333c 5a3d 00bd 1a88 c73c c2fd c03c
00000140: c4b9 873c 21a7 e8ba 08a4 febc 1434 7cbc
00000150: acd4 c8bc 1ed1 27bb fc8f 82bc 1ae6 8f3c
00000160: 18e3 853c 0e8d 6a3b b9de bdbc 94a3 c3bc
00000170: 4d24 16bc 1c7f db3c 1ba7 f4bc 4556 b33c
00000180: 149b 42bc 21ca 9e3c e40a a3bc 2737 4abc
00000190: 885e b83c 018e a7bc 642c e1bc 4b2b 01bd
000001a0: 95bd 4dbc 6247 c5ba ff55 01bd 2b98 a93c
000001b0: 0a7b da3c ca99 223c 984e 1cbd 6fd6 c7ba
000001c0: 0c05 983b e502 a9bc b2a3 a53c 71c0 0e3c
000001d0: 19aa fe39 b754 1abd 4b6c a0bc f884 b0bc
000001e0: 2ccf 27bc a03c be3b 26dd f2b8 a619 febc
000001f0: a891 99bc 856c 813c 6060 a8ba 938f 9fbc

net.2.weight f4 [128, 128]
-0.010663077 -0.04339715 0.04300386 -0.074459806 -0.08043317 0.065507494 0.030270845 0.0684031
-0.014721455 0.06532552 0.09164051 -0.044981137 -0.026869532 -0.018966906 -0.017604792 -0.033235297
-0.060091678 0.07331603 -0.06585581 -0.08872536 0.024759006 -0.027975183 0.009154879 -0.061593603
-0.0013106564 -0.041717887 0.08141225 0.018050462 -0.025221035 -0.076629005 0.028248563 -0.017969953
-0.06641787 -0.029715031 -0.0054412475 -0.021045845 -0.08475318 -0.049788233 -0.054418117 -0.0290536
0.023975959 -0.011951454 -0.08446269 0.00014911384 -0.030018222 -0.06305395 -0.015996382 -0.013420264
-0.09133391 -0.023089709 -0.0727581 -0.074179314 0.04756307 0.031764504 -0.052324425 0.016905325
0.030430382 0.029019235 -0.005996175 0.01654352 0.03522533 0.043487594 -0.07922083 0.02617611
-0.0775283 -0.025072742 0.016869687 0.007818579 -0.045269318 0.086857475 -0.010502612 -0.023705266
-0.056096315 -0.046293203 0.014501169 0.011564111 0.07824631 -0.0029394983 -0.028400084 0.03583929
0.06629007 0.05670032 0.06449029 -0.026412185 0.052263938 -0.14735389 0.05182267 0.036270104
-0.06721485 -0.07681662 0.01826843 -0.06390017 0.024736885 -0.056510124 -0.085510746 0.023199888
0.03370292 -0.0063285944 0.07663102 -0.094649576 0.084388666 -0.0537386 -0.05960036 0.039309286
0.020804042 0.019818082 0.002754073 -0.03502227 -0.052564252 0.0027767671 0.018401757 -0.023227515
-0.007148837 0.033740826 0.078208886 -0.032983713 0.07114292 -0.07015064 0.086012505 -0.030073045
-0.04088567 -0.0029205307 -0.05899063 -0.006121483 0.011310169 -0.018657405 0.004913099 0.03368881
-0.015623882 -0.028918212 -0.046773802 -0.069482036 -0.041512102 -0.002964916 -0.072579496 0.010330724
0.090364 0.039093874 0.059957623 -0.06872917 0.036103696 0.022753924 0.017273342 -0.03281146
0.026177235 -0.051834483 0.062941104 0.07485618 0.094179384 -0.038785815 -0.041595925 -0.3505556
0.059986833 -0.04862657 -0.070840456 0.064582326 -0.04938701 -0.34395704 0.07054451 0.0153332595
0.059304498 -0.077360556 -0.03023561 0.044738524 -0.10092527 -0.18934196 0.060691644 0.00093258184
0.07231006 -0.0539225 0.0019536489 0.45155847 -0.051520456 0.02940405 -0.021556139 0.05631657
0.0551466 -0.08158847 0.028992083 0.025401749 0.05505296 0.075263225 -0.05919612 -0.06969377
-0.003128425 -0.0428272 -0.06645444 -0.08224923 0.06624299 0.08275141 0.09056194 -0.015780043
-0.046232756 -0.07773 -0.08396694 -0.03652668 0.08867955 0.031156152 -0.077345915 -0.06287204
0.041760363 0.029510027 0.05931074 0.025652025 -0.0270112 0.031093264 -0.072051935 -0.07817693
0.031565063 0.09379625 -0.021908477 -0.01935736 0.06327733 -0.0070799007 -0.004218297 0.041551564
0.050414585 -0.040815547 0.06888498 0.07709309 0.054341454 0.064856954 0.024792999 0.064124025
0.051727176 0.07150532 0.048686422 0.031160738 -0.049228318 -0.0032698065 0.08077828 0.034738675
0.033401944 -0.006327981 -0.07569464 -0.067783795 -0.012444444 0.03279728 0.011078469 0.052517515
0.011265209 0.021310985 -0.015686415 0.16136536 0.0824609 -0.055204965 -0.040767234 -0.13529932
-0.0882126 -0.05233447 0.060723733 0.03536609 0.082406335 0.0038353216 0.045263685 0.083421566
00000000: 30b4 2ebc 36c1 31bd d124 303d 627e 98bd
00000010: 25ba a4bd cb28 863d 90fa f73c ed16 8c3d
00000020: 4232 71bc 63c9 853d 05ae bb3d 243e 38bd
00000030: 7e1d dcbc 7c60 9bbc ed37 90bc bc21 08bd
00000040: b122 76bd b726 963d 69df 86bd a4b5 b5bd
00000050: 66d3 ca3c 362c e5bc 58fe 153c 9349 7cbd
00000060: 55ca abba 60e0 2abd 77bb a63d 90de 933c
00000070: 589c cebc abef 9cbd 8869 e73c b935 93bc
00000080: 1806 88bd f06c f3bc 7e4c b2bb 5668 acbc
00000090: 1393 adbd bfee 4bbd 88e5 5ebd d101 eebc
000000a0: 3b69 c43c 08d0 43bc c6fa acbd 715b 1c39
000000b0: c6e8 f5bc 6e22 81bd d80a 83bc abe0 5bbc
000000c0: 460d bbbd a126 bdbc 3302 95bd 53eb 97bd
000000d0: 7ed1 423d 7f1b 023d 2352 56bd 097d 8a3c
000000e0: 2349 f93c bfb9 ed3c 907b c4bb 4786 873c
000000f0: 7048 103d 0c20 323d 883e a2bd 486f d63c
00000100: 28c7 9ebd 5a65 cdbc 4c32 8a3c 7f19 003c
00000110: 526c 39bd 55e2 b13d 2613 2cbc 8c31 c2bc
00000120: 40c5 65bd f19d 3dbd 5096 6d3c 6677 3d3c
00000130: 9a3f a03d 99a4 40bb 4ba7 e8bc 38cc 123d
00000140: 17c3 873d 983e 683d 7c13 843d 5e5e d8bc
00000150: b612 563d f0e3 16be 0244 543d f68f 143d
00000160: f0a7 89bd 0852 9dbd ada7 953c 18de 82bd
00000170: 02a5 ca3c 2977 67bd 4220 afbd b10d be3c
00000180: 130c 0a3d 1960 cfbb b9f0 9c3d a3d7 c1bd
00000190: f7d3 ac3d 021d 5cbd 821f 74bd c602 213d
000001a0: 3d6d aa3c 8859 a23c ad7d 343b 8373 0fbd
000001b0: 9d4d 57bd 6cfa 353b 48bf 963c a147 bebc
000001c0: cb40 eabb d233 0a3d fb2b a03d ee19 07bd
000001d0: 61b3 913d 24ab 8fbd 5327 b03d bf5b f6bc
000001e0: bb77 27bd 6066 3fbb 29a0 71bd b996 c8bb
000001f0: 494e 393c 6ad7 98bc 10fe a03b 47fd 093d
00000200: 50fb 7fbc e3e5 ecbc e395 3fbd 994c 8ebd
00000210: 9808 2abd 094f 42bb 8fa4 94bd 3242 293c
00000220: c310 b93d e620 203d 2096 753d e1c1 8cbd
00000230: 78e1 133d 7066 ba3c d380 8d3c 4f65 06bd
00000240: a471 d63c 6550 54bd 44e7 803d 324e 993d
00000250: 1fe1 c03d e0dd 1ebd 7d60 2abd 067c b3be
00000260: c1b4 753d a72c 47bd cd14 91bd bd43 843d
00000270: 094a 4abd 231b b0be a479 903d 5a38 7b3c
00000280: 46e9 723d 366f 9ebd acb0 f7bc be3f 373d
00000290: e8b1 cebd dce2 41be cd97 783d 8278 743a
000002a0: 4c17 943d d7dd 5cbd ca08 003b ac32 e73e
000002b0: 1d07 53bd c3e0 f03c 8096 b0bc 34ac 663d
000002c0: 67e1 613d db17 a7bd ce80 ed3c 5417 d03c
000002d0: 367f 613d 9b23 9a3d a177 72bd 9bbb 8ebd
000002e0: 4306 4dbb 936b 2fbd 4419 88bd 4972 a8bd
000002f0: 68aa 873d 9279 a93d 8a78 b93d 2645 81bc
00000300: 8f5e 3dbd e830 9fbd dcf6 abbd 009d 15bd
00000310: a09d b53d 303b ff3c 8967 9ebd 0ec3 80bd
00000320: ea0c 2b3d 03bf f13c d2ef 723d 3224 d23c
00000330: 9846 ddbc 4db7 fe3c f78f 93bd 3a1b a0bd
00000340: 5e4a 013d 4018 c03d 6879 b3bc 5493 9ebc
00000350: 8b97 813d 83fe e7bb a439 8abb f931 2a3d
00000360: 867f 4e3d 342e 27bd 9213 8d3d fbe2 9d3d
00000370: 2595 5e3d b9d3 843d b01a cb3c 7553 833d
00000380: e0df 533d 6271 923d 6a6b 473d ce44 ff3c
00000390: a2a3 49bd 404a 56bb 156f a53d 244a 0e3d
000003a0: 7ad0 083d f45a cfbb cb05 9bbd 3bd2 8abd
000003b0: c8e3 4bbc 7156 063d 7882 353c 9b1c 573d
000003c0: b691 383c 6094 ae3c cc80 80bc f63c 253e
000003d0: 43e1 a83d 9a1e 62bd 8bfb 26bd e88b 0abe
000003e0: cfa8 b4bd ab5c 56bd 73b9 783d 08dc 103d
000003f0: a7c4 a83d 055a 7b3b 6a66 393d edd8 aa3d

net.2.bias f4 [128]
-0.076061636 -0.23401256 -0.0008129009 -0.01830128 -0.100774676 -0.11618001 -0.12608138 0.17305015
-0.14371537 -0.3009638 0.14012477 -0.027881064 -0.14525963 -0.0790522 0.20338552 -0.056714397
-0.070908576 -0.12617293 -0.006668221 0.057813257 0.06500598 -0.014601745 -0.12184001 -0.06771595
-0.07011316 -0.07652085 -0.05025869 -0.06527484 -0.032098737 -0.0015047889 -0.0016792017 -0.0026884652
0.032227047 0.20248246 0.16983698 -0.04365236 0.06847915 0.058448058 0.2203393 0.086189345
-0.115047954 -0.044002283 -0.08336717 -0.003955354 0.30848816 -0.06986337 -0.0023787408 -0.11715817
-0.007628886 -0.013286737 -0.007907264 -0.012274104 -0.0011717046 0.44261822 -0.07331581 -0.09529859
-0.018389031 -0.00027937727 -0.07799632 -0.077639066 0.30034935 0.3038413 -0.055874057 -0.11556465
-0.040252015 0.25475565 -0.21689624 0.1608875 -0.031704057 -0.026645942 -0.11783395 -0.12539673
-0.09291529 -0.0308979 -0.12878115 -0.024764858 -0.16465011 -0.114152595 -0.076473415 -0.046786945
-0.0109440815 -0.056947924 -0.08568746 0.04982062 -0.015711002 0.035919853 -0.050944872 -0.084079176
-0.003143957 -0.12913343 0.2578965 -0.027832286 -0.14575347 -0.008577872 -0.029528527 -0.08681513
0.02968691 -0.002872193 0.13842331 -0.060366943 -0.19022301 -0.0490389 -0.0660167 -0.012910005
-0.009465846 0.20647608 -0.031274475 -0.23212989 0.010715583 -0.0906167 0.16844858 -0.124679126
-0.07767191 -0.07523824 -0.1777207 0.017934062 -0.07356278 -0.011179292 -0.10616513 -0.061758235
-0.07363651 -0.009376844 -0.08174145 -0.023177367 0.14826182 -0.1520919 -0.02195643 -0.016683776
00000000: 34c6 9bbd fda0 6fbe db18 55ba 91ec 95bc
00000010: f462 cebd c9ef edbd 7a1b 01be 0f34 313e
00000020: 1f2a 13be ed17 9abe de7c 0f3e d466 e4bc
00000030: f1be 14be 1fe6 a1bd 4b44 503e 5b4d 68bd
00000040: 8438 91bd 7a33 01be 1881 dabb 98cd 6c3d
00000050: db21 853d 283c 6fbc 4187 f9bd a9ae 8abd
00000060: 7d97 8fbd f7b6 9cbd 0edc 4dbd d1ae 85bd
00000070: f779 03bd 563c c5ba a918 dcba f630 30bb
00000080: 8200 043d 9057 4f3e bfe9 2d3e d1cc 32bd
00000090: cc3e 8c3d 3b67 6f3d a0a0 613e 0a84 b03d
000000a0: 439e ebbd bd3b 34bd 68bc aabd ea9b 81bb
000000b0: 29f2 9d3e 8714 8fbd a6e4 1bbb 9ff0 efbd
000000c0: bcfb f9bb 9db0 59bc 788d 01bc 5319 49bc
000000d0: e293 99ba db9e e23e 9926 96bd e82b c3bd
000000e0: 98a4 96bc 6279 92b9 89bc 9fbd 3b01 9fbd
000000f0: 64c7 993e 1691 9b3e 32dc 64bd 29ad ecbd
00000100: 4cdf 24bd 556f 823e 0c1a 5ebe b1bf 243e
00000110: 1ddc 01bd 9748 dabc ed52 f1bd 0068 00be
00000120: 5f4a bebd 981d fdbc 35df 03be acdf cabc
00000130: 0a9a 28be d6c8 e9bd 189e 9cbd aba3 3fbd
00000140: ce4e 33bc 3a42 69bd e87c afbd b510 4c3d
00000150: 5cb4 80bc b220 133d 92ab 50bd b431 acbd
00000160: d80a 4ebb 8e3b 04be 030b 843e 8900 e4bc
00000170: 6640 15be 348a 0cbc cfe5 f1bc 22cc b1bd
00000180: f631 f33c 673b 3cbb d7be 0d3e 5443 77bd
00000190: d2c9 42be 03dd 48bd c333 87bd 7c84 53bc
000001a0: a316 1bbc 776e 533e aa19 00bd 75b3 6dbe
000001b0: 6a90 2f3c 4095 b9bd c97d 2c3e c557 ffbd
000001c0: 7312 9fbd 8216 9abd 6afc 35be 74ea 923c
000001d0: 15a8 96bd 5929 37bc 1b6d d9bd 34f6 7cbd
000001e0: bdce 96bd 56a1 19bc 1068 a7bd 76de bdbc
000001f0: f2d1 173e fbbd 1bbe f9dd b3bc 6aac 88bc

net.4.weight f4 [3, 128]
-0.051119063 0.19909297 0.05412163 0.014084726 0.06351118 -0.034314636 -0.009957877 -0.033020817
-0.05992145 0.27267653 0.15718628 -0.04902553 -0.004172513 -0.028934594 -0.057912946 0.037112188
-0.03164 -0.030212302 0.089231245 0.06551354 -0.34211865 -0.0035579759 0.019006385 0.052246153
-0.029743636 -0.07725289 0.39391744 -0.016516928 -0.29578483 0.025610145 -0.035033453 0.019926859
0.05850979 0.3751931 0.37010688 0.075542346 0.14134698 -0.06103919 -0.14142385 0.010596753
-0.060635526 -0.36200014 0.00086082076 -0.017453693 -0.2278217 0.017001905 -0.029281395 -0.010979818
-0.21130827 0.116208166 0.043849155 0.0063000834 -0.020766562 0.18693501 0.03814262 0.035225015
-0.034019466 0.058749977 0.39008242 0.014912484 0.12662439 0.17337754 0.07172775 -0.0012047215
0.0051724073 0.074754566 -0.036484655 -0.0052127065 -0.05869884 -0.090029895 0.0027129669 0.12814128
-0.033706486 0.057753377 0.024821345 0.034355614 0.29003146 -0.0016164982 -0.27257916 -0.065777056
-0.020368718 -0.020598037 0.0046166517 0.04133272 -0.2423696 0.44792563 -0.12414028 0.049334593
0.041533314 -0.109819874 0.116853245 -0.22426298 0.03472674 0.0044550956 0.13529618 0.07477878
0.04236034 -0.04905127 0.22355506 -0.17001863 0.02042236 0.035070732 -0.0059242756 -0.004475278
0.038900644 0.02657667 -0.27533096 0.20993818 -0.3965143 0.0065235305 -0.027658252 0.11684052
-0.02157192 0.039026756 0.080096714 0.051597208 -0.013719982 0.09490037 -0.058757816 -0.016513493
-0.079871856 -0.026677204 -0.13364482 -0.029257454 -0.111049294 0.0091873165 -0.0051858397 0.0016420952
0.015682066 -0.14883181 -0.006945631 0.014787959 -0.002199298 0.019239834 -0.02047696 -0.03681559
0.0067175343 -0.10288054 0.21836683 0.056179136 0.0288101 0.031939086 -0.089992516 0.027346194
-0.096537046 0.04987254 -0.118678376 0.09585601 0.13710058 0.23200288 0.046838693 0.059994444
-0.022273768 -0.21726628 0.22701044 -0.16783458 0.10480413 -0.046786405 -0.027573416 0.03752035
0.041357655 0.34473562 0.060827293 0.087189496 0.1481153 -0.23293035 -0.2564557 0.09135757
0.04551526 -0.12215111 -0.025359403 0.113425374 -0.1718795 -0.031008951 -0.14647935 0.00034065815
0.032910384 0.030836128 -0.14230822 -0.021865169 0.13255687 0.2666099 0.024744624 0.02525849
-0.0126310745 0.03469999 -0.08512194 -0.0010252285 0.1549505 0.32510638 0.10910359 -0.008700495
0.022526298 0.029578041 0.2430549 0.12786698 0.030532084 0.005919533 0.0050561237 0.09252339
0.034678884 -0.06134084 -0.004687209 -0.005398762 -0.20785125 0.048874516 0.040754452 0.04799946
-0.008355258 0.044300593 0.057717364 0.21871896 0.06401702 0.1131428 0.24290687 0.035400808
-0.035785757 -0.11228904 3.0768642e-06 -0.030228484 0.04128621 -0.012840259 0.34194946 -0.008036792
0.22007142 0.014248948 0.05791651 0.018292041 -0.039474037 0.096399635 0.07696898 0.008042671
-0.0036758634 0.07608515 0.058291268 0.3963038 -0.75834167 0.004093964 -0.05564733 -0.07236844
0.06980146 -0.053019933 0.24562868 0.12540478 -0.0134429075 -0.18929853 0.0015938315 0.0036155104
-0.0054682223 -0.011510002 0.037445497 -0.009987827 0.029328858 0.0016865149 -0.0058789705 0.021938208
00000000: 3962 51bd 07df 4b3e a4ae 5d3d 9fc3 663c
00000010: 2612 823d 818d 0cbd 5d26 23bc d640 07bd
00000020: 3270 75bd 429c 8b3e 71f5 203e ffce 48bd
00000030: 93b9 88bb 3e08 edbc 2036 6dbd f302 183d
00000040: f298 01bd ca7f f7bc dfbe b63d f62b 863d
00000050: 2d2a afbe ee2c 69bb 47b3 9b3c 1000 563d
00000060: eda8 f3bc c336 9ebd 8caf c93e 824e 87bc
00000070: 1c71 97be 5ecc d13c 3d7f 0fbd a73d a33c
00000080: f6a7 6f3d 4f19 c03e a67e bd3e f2b5 9a3d
00000090: 43bd 103e 3b04 7abd 6ad1 10be 019e 2d3c
000000a0: f55c 78bd 1558 b9be b4a8 613a 0cfb 8ebc
000000b0: 174a 69be 9447 8b3c 89df efbc b2e4 33bc
000000c0: 3261 58be 8cfe ed3d 2c9b 333d ee70 ce3b
000000d0: a31e aabc e46b 3f3e 703b 1c3d 1b48 103d
000000e0: ff57 0bbd d1a3 703d e2b8 c73e 7e53 743c
000000f0: d3a9 013e e289 313e 00e6 923d bfe7 9dba
00000100: 4c7d a93b ec18 993d ef70 15bd 5acf aabb
00000110: 326e 70bd 9861 b8bd 08cc 313b 7837 033e
00000120: d00f 0abd ce8e 6c3d 2256 cb3c 79b8 0c3d
00000130: 017f 943e aee0 d3ba 7f8f 8bbe 1fb6 86bd
00000140: 4cdc a6bc 37bd a8bc 4847 973b 804c 293d
00000150: bd2f 78be 8256 e53e 423d febd 1213 4a3d
00000160: d61e 2a3d 3ee9 e0bd c150 ef3d 32a5 65be
00000170: a03d 0e3d 0dfc 913b 158b 0a3e 9e25 993d
00000180: 0982 2d3d fce9 48bd 9eeb 643e 5d19 2ebe
00000190: cb4c a73c 54a6 0f3d 6d20 c2bb 5aa5 92bb
000001a0: 4856 1f3d 51b7 d93c 2ef8 8cbe 09fa 563e
000001b0: ec03 cbbe 57c3 d53b 8f93 e2bc 154a ef3d
000001c0: 98b7 b0bc 85da 1f3d bf09 a43d 9857 533d
000001d0: c6c9 60bc 205b c23d 09ac 70bd 4e47 87bc
000001e0: db93 a3bd 278a dabc 30da 08be 54ad efbc
000001f0: d06d e3bd 6686 163c faed a9bb 923b d73a
00000200: ad77 803c 5e67 18be 2d98 e3bb 3249 723c
00000210: 1922 10bb db9c 9d3c 4cbf a7bc f2cb 16bd
00000220: c31e dc3b 08b3 d2bd 8e9b 5f3e 181c 663d
00000230: 2903 ec3c 8fd2 023d ff4d b8bd 2005 e03c
00000240: 37b5 c5bd 2647 4c3d a60d f3bd 2850 c43d
00000250: 1864 0c3e 2a92 6d3e eed9 3f3d bcbc 753d
00000260: 7a77 b6bc 0d7b 5ebe 6d75 683e d4dc 2bbe
00000270: 8ca3 d63d 1aa3 3fbd a5e1 e1bc f0ae 193d
00000280: a566 293d 3081 b03e 0a26 793d 6890 b23d
00000290: 8aab 173e 4b85 6ebe 294e 83be ad19 bb3d
000002a0: 366e 3a3d 5c2a fabd 86be cfbc 904b e83d
000002b0: 2e01 30be 7c06 febc affe 15be 5d9a b239
000002c0: 0acd 063d 0c9c fc3c 3fb9 11be 951e b3bc
000002d0: fdbc 073e 1881 883e 3db5 ca3c e5ea ce3c
000002e0: 91f2 4ebc 9421 0e3d 6954 aebd f660 86ba
000002f0: 58ab 1e3e 5874 a63e b471 df3d 858c 0ebc
00000300: 1289 b83c a64d f23c 62e3 783e 90ef 023e
00000310: 6c1e fa3c a4f8 c13b d7ad a53b e77c bd3d
00000320: 720b 0e3d 8840 7bbd 2997 99bb 19e8 b0bb
00000330: f5d6 54be a530 483d 24ee 263d 159b 443d
00000340: 7ee4 08bc 8a74 353d 0b69 6c3d ddf7 5f3e
00000350: 5b1b 833d 6ab7 e73d 94bc 783e 7000 113d
00000360: 1694 12bd ccf7 e5bd 207c 4e36 baa1 f7bc
00000370: bb1b 293d f35f 52bc 0014 af3e c0ac 03bc
00000380: 675a 613e 6b74 693c dd39 6d3d 31d9 953c
00000390: 87af 21bd 2c6d c53d eaa1 9d3d 68c5 033c
000003a0: c1e6 70bb 88d2 9b3d d3c2 6e3d 55e8 ca3e
000003b0: ae22 42bf a926 863b 74ee 63bd e835 94bd
000003c0: 11f4 8e3d 6e2b 59bd 1686 7b3e 1c6a 003e
000003d0: a43f 5cbc 79d7 41be 1ce8 d03a 33f2 6c3b
000003e0: c62e b3bb 7394 3cbc 7360 193d fca3 23bc
000003f0: 1343 f03c 0d0e dd3a 61a4 c0bb c2b7 b33c

net.4.bias f4 [3]
0.15259254 0.15022184 0.112319775
00000000: 3841 1c3e c1d3 193e e907 e63d
